checkpoint_critic.pth (torch_old, 86944 bytes, 5 tensors)

fc1.weight f4 [128, 33]
000000 09 a1 46 37 ad 23 ca 37 62 08 d6 37 54 3f d5 b5
       1.1839214e-05 2.409689e-05 2.5514692e-05 -1.5888168e-06
000010 d7 e5 d1 37 cb 5f 6e 37 74 f8 44 36 7b 11 a1 b8
       2.5021769e-05 1.4208209e-05 2.9350895e-06 -7.680334e-05
000020 f5 62 3f b8 81 e3 b7 37 90 70 24 b7 94 de 7f 38
       -4.563011e-05 2.192124e-05 -9.80137e-06 6.100403e-05
000030 02 24 b5 38 fb b6 49 38 22 ea 27 38 eb 3a ad 37
       8.6374595e-05 4.809255e-05 4.0033956e-05 2.0650643e-05
000040 e1 60 2d b8 35 3a d6 b7 c6 8f 1a b6 9f a7 2e 38
       -4.133664e-05 -2.5537893e-05 -2.3031475e-06 4.1640942e-05
000050 63 ef e6 37 ef 99 f2 37 ba db 35 37 15 7f a7 34
       2.752961e-05 2.8920329e-05 1.08396e-05 3.1198638e-07
000060 13 b2 5b b8 e8 d4 17 38 33 a3 ff 37 95 1c ac b5
       -5.2379513e-05 3.619949e-05 3.0474364e-05 -1.2823317e-06
000070 cb 1e 98 38 99 90 01 80 95 1c ac 35 96 72 41 80
       7.2536604e-05 -1.43707e-40 1.2823317e-06 -6.010413e-39
000080 89 74 bc 37 c8 48 55 38 00 3c 87 39 46 43 ac b8
       2.2465612e-05 5.085094e-05 0.0002579391 -8.21413e-05
000090 56 4d 4b b8 4f 9c 52 b8 3c 0a 0c b8 57 d8 33 38
       -4.8470996e-05 -5.0213475e-05 -3.3388133e-05 4.2878408e-05
0000a0 50 8b 2f ba e1 05 f4 b7 bd a4 83 38 3e 8e 9c b9
       -0.00066964794 -2.9089804e-05 6.277252e-05 -0.00029860617
0000b0 ed 4e a5 39 6e b1 19 ba ea 90 ae b9 1b b7 71 3a
       0.00031530057 -0.0005862926 -0.00033295836 0.0009220705
0000c0 34 80 37 3a 45 77 18 b8 66 63 8c 38 42 28 c5 38
       0.0007 -3.6350702e-05 6.6942346e-05 9.4011906e-05
0000d0 f8 4d a2 b6 28 b7 7d 3a a1 71 32 b9 3b a6 88 3a
       -4.837053e-06 0.00096784765 -0.00017017733 0.0010425517
0000e0 41 bc 69 b9 d0 8f 4f 3a ea 79 92 39 91 3d d1 b7
       -0.00022290742 0.0007917853 0.00027938123 -2.494341e-05
0000f0 30 00 b7 39 9c 3f f8 39 4e 3e 7e 00 30 00 b7 b9
       0.0003490462 0.0004734964 1.1593623e-38 -0.0003490462
000100 8a a5 22 80 2c 8d d3 38 27 58 fb 37 c4 e9 f1 38
       -3.181791e-39 0.00010087559 2.996258e-05 0.00011535318
000110 62 ec ee 39 60 39 34 b9 7f f4 01 39 9e 00 36 b8
       0.00045571016 -0.00017187512 0.0001239348 -4.3392756e-05
000120 00 46 c2 36 4b 43 87 39 46 16 75 36 2b d2 ee b7
       5.7897996e-06 0.00025799344 3.652081e-06 -2.8469678e-05
000130 d2 42 72 b9 1c 58 54 ba 1c 5d 23 b9 63 db 90 39
       -0.00023103811 -0.00081002875 -0.00015579577 0.00027629276
000140 5e 68 b3 39 49 0e 06 3a e3 00 56 b8 00 b7 ab b4
       0.000342193 0.0005113823 -5.10224e-05 -3.1984382e-07
000150 f8 dc 07 38 52 fe 03 b8 c0 3d f9 37 9b ed 58 b8
       3.23923e-05 -3.1469688e-05 2.9711868e-05 -5.17197e-05
000160 01 f6 74 b8 5e 60 5c b9 2f 70 14 ba 03 5d 38 39
       -5.8403242e-05 -0.00021016735 -0.00056624686 0.00017582257
000170 50 d1 a8 b8 39 80 1b 38 5c 3e 1c 39 b3 f7 b1 00
       -8.049852e-05 3.7074296e-05 0.0001490055 1.634374e-38
000180 39 80 1b b8 24 0e 78 00 73 6d 0d b8 bd f6 61 3a
       -3.7074296e-05 1.1025332e-38 -3.3718952e-05 0.0008619836
000190 29 86 1a b9 07 00 e9 3a 19 41 3a ba c5 27 a1 39
       -0.00014736563 0.0017776497 -0.0007105037 0.00030737944
0001a0 a7 23 3c 39 6e b7 09 b9 de 5e 50 3a 52 7d 07 37
       0.00017942359 -0.00013133671 0.00079487066 8.075805e-06
0001b0 43 e0 a1 39 69 a6 20 bb ac b2 f4 3a c3 cb 63 ba
       0.000308754 -0.002451325 0.0018668971 -0.00086897257
0001c0 0d 57 99 3a 6c ca 54 3a 27 92 47 3b 16 1b 23 39
       0.0011698917 0.00081173214 0.0030452104 0.00015554982
0001d0 ec 6e d1 b6 9e 1e 88 39 c0 68 c3 b9 61 08 a4 3a
       -6.2415984e-06 0.00025962753 -0.00037271343 0.0012514704
0001e0 60 c7 d1 39 50 97 e0 3a 52 80 a0 ba 70 d0 83 ba
       0.00040012132 0.0017134938 -0.0012245274 -0.0010056626
0001f0 12 e3 00 ba 69 83 c3 ba 0b 54 8c 39 0b 73 c4 ba
       -0.00049166486 -0.0014916483 0.00026765498 -0.0014987899
000200 6c 97 1a 80 0b 54 8c b9 98 b2 70 80 03 9f 20 b8
       -2.442043e-39 -0.00026765498 -1.0349643e-38 -3.8295064e-05
000210 68 fc 9b ba 27 68 fe 39 30 7f ad b8 6c 58 9d b9
       -0.0011900784 0.00048524255 -8.272973e-05 -0.00030011253
000220 80 42 1c 36 33 88 0e 3a f2 64 76 3a 7f e1 64 ba
       2.328452e-06 0.00054371654 0.00093991973 -0.00087311113
000230 e4 f6 9b ba f3 6f 82 3a bb b5 ad 3a fa fc 82 ba
       -0.0011899141 0.0009951576 0.0013253012 -0.0009993606
000240 01 e9 c9 3a 43 41 f6 b9 8a e9 3f 3a 1a cd e1 b8
       0.0015404524 -0.000469694 0.0007320872 -0.00010767039
000250 54 6c 57 b8 4e 43 ef 39 fc 24 e8 b9 1b 03 bc 3a
       -5.1360883e-05 0.00045635778 -0.00044278044 0.0014344187
000260 e9 f5 a6 3a 2a d0 ba b9 d9 65 98 39 cd 76 7e 38
       0.0012738082 -0.0003563178 0.00029067582 6.066896e-05
000270 c1 86 3b ba 5c ed 20 3a 3f 60 7d ba 1c 0f 04 39
       -0.0007153564 0.0006138885 -0.0009665526 0.0001259413
000280 28 30 8b ba bb 1a 1c 80 1c 0f 04 b9 31 45 76 00
       -0.001061921 -2.580983e-39 -0.0001259413 1.086141e-38
000290 1f 4c 1c b9 04 0e f3 b9 06 06 4c 3a b3 88 88 b9
       -0.00014905677 -0.00046359014 0.000778288 -0.0002604179
0002a0 12 a6 bd 38 37 7f 0c ba 1c 1c 82 39 b0 f1 39 37
       9.043155e-05 -0.00053595327 0.00024816475 1.10831315e-05
0002b0 f5 8f 56 ba 8a 77 43 39 fe 9f 7e 38 e2 22 c7 b9
       -0.00081849034 0.00018641181 6.0707323e-05 -0.00037982228
0002c0 04 b9 31 3a 62 8d 09 ba 90 b5 4e ba 7c c4 a3 3a
       0.00067795836 -0.0005247203 -0.0007885331 0.001249447
0002d0 0c 5a 78 39 00 a1 0a b4 fe 7b 98 39 c8 7a c3 38
       0.00023684668 -1.2910823e-07 0.0002908408 9.3211944e-05
0002e0 9c 30 fa 39 70 67 84 39 f1 fa 93 ba 83 51 b1 3a
       0.00047719933 0.0002525407 -0.0011289996 0.0013528321
0002f0 1d 02 2b ba 7c 74 41 3a 62 27 a6 39 98 a2 17 ba
       -0.0006523447 0.0007379723 0.0003169133 -0.0005784421
000300 b9 3d a7 39 3d 5c 85 3a c8 29 5c 00 b9 3d a7 b9
       0.0003189871 0.0010174584 8.463854e-39 -0.0003189871
000310 94 50 d1 00 7b 51 54 b8 25 38 37 3c 20 7b 61 bc
       1.9222525e-38 -5.0620623e-05 0.0111828195 -0.013762265
000320 6d d5 a8 3b 29 69 b8 ba f4 c3 03 bb e5 98 9a 3b
       0.0051523955 -0.0014069426 -0.002010581 0.0047179335
000330 b1 c4 bc 3b 1e ac 9c 3b ec 7b 6c 3c 24 e6 60 3c
       0.005760752 0.00478126 0.014433842 0.013726745
000340 d6 de 83 3c 8a bb 09 3c a3 64 14 3b 14 7c 17 3d
       0.016097467 0.008406529 0.0022642992 0.036983564
000350 39 99 3c bd 89 c5 d1 3b 0d bf 2f 3c 4e 8e e1 3b
       -0.046044562 0.006401722 0.010726702 0.006883419
000360 dc b6 4d bb ce 9b 9c 3b 16 43 67 bb b6 7c a6 bb
       -0.003138951 0.0047793156 -0.003528779 -0.0050807847
000370 20 a0 55 3c be bf a4 bb fa e6 1a bd 5c 62 e6 ba
       0.013038665 -0.0050277403 -0.037817933 -0.0017576921
000380 22 d8 b2 3c 93 83 85 3b 05 a7 6a 3c 4b 17 40 00
       0.021831576 0.0040745228 0.014322047 5.885828e-39
000390 93 83 85 bb 11 15 a7 00 37 0f ca 3b bc 00 83 b4
       -0.0040745228 1.5344085e-38 0.0061663645 -2.4401186e-07
0003a0 cc 69 b8 35 e3 d6 83 35 85 ac 38 b5 5e 5b 82 b5
       1.3739859e-06 9.822801e-07 -6.879639e-07 -9.712346e-07
0003b0 a8 b9 a4 b3 a2 fb 8b b4 50 19 25 b5 d2 00 ec 34
       -7.670616e-08 -2.6073855e-07 -6.1504124e-07 4.3959022e-07
0003c0 49 33 f7 34 1c 6f ca 35 72 14 5b 35 52 24 b8 35
       4.604465e-07 1.508251e-06 8.161361e-07 1.3719639e-06
0003d0 48 76 cf 35 a5 5c ca 36 e6 a9 49 36 86 48 06 34
       1.5457126e-06 6.0308544e-06 3.0050228e-06 1.2506106e-07
0003e0 ac 64 54 b4 cf 67 ca b5 2c 48 a1 b4 f8 b0 3c 36
       -1.9780663e-07 -1.5080385e-06 -3.00411e-07 2.8117192e-06
0003f0 56 fa 8b b5 7e eb dd 35 64 76 d8 b4 48 03 a0 35
       -1.0429164e-06 1.653432e-06 -4.0319276e-07 1.1921884e-06

fc1.bias f4 [128]
000000 34 1d ac 35 2f 00 b7 b9 43 80 1b b8 0d 54 8c b9
       1.2823498e-06 -0.00034904617 -3.7074333e-05 -0.00026765504
000010 1f 0f 04 b9 b9 3d a7 b9 93 83 85 bb 08 d7 95 b5
       -0.00012594134 -0.0003189871 -0.0040745228 -1.1163947e-06
000020 0a e6 b5 b2 6b 71 a1 b6 44 d5 3e b9 9f 9c 8c b8
       -2.1175783e-08 -4.8113775e-06 -0.0001819926 -6.704893e-05
000030 23 96 36 b6 42 73 fb b6 3f b3 9b b9 af d2 22 b8
       -2.7207504e-06 -7.4938007e-06 -0.00029697453 -3.8820024e-05
000040 60 e2 00 b9 64 84 e8 b7 4d ea f9 bc 84 64 86 37
       -0.00012291363 -2.7718204e-05 -0.030507231 1.6020851e-05
000050 2b c4 0e ba 11 36 7f b8 da 06 0a b9 e1 0a ab bb
       -0.00054461014 -6.084709e-05 -0.00013163258 -0.0052198027
000060 f4 b0 39 3c 54 5e 59 b7 c7 27 7f bc 7b 02 9c bc
       0.011333693 -1.295617e-05 -0.0155734485 -0.019044152
000070 8c d9 58 b8 1a 56 f0 b9 e2 c8 1a bc fb c2 3f ba
       -5.170102e-05 -0.00045840518 -0.009447308 -0.0007315126
000080 87 d4 50 ba 6e a9 28 b8 98 9e 81 b6 35 35 6e b6
       -0.00079662394 -4.0212115e-05 -3.8629623e-06 -3.5495734e-06
000090 04 c1 33 b9 f5 27 cb b8 5a dd b3 b7 32 80 93 b7
       -0.00017142674 -9.687237e-05 -2.1441538e-05 -1.7583461e-05
0000a0 67 f1 f9 bb e7 1c 96 b5 6f e1 16 b9 ee d8 01 3b
       -0.0076276544 -1.1184283e-06 -0.00014389095 0.0019813138
0000b0 dd db bd bc 61 8e b2 b9 e1 c0 0b ba 76 9f d9 b9
       -0.023176128 -0.00034056886 -0.00053311704 -0.00041508273
0000c0 77 b2 39 b8 e4 d5 05 3c ab 28 88 bb 32 38 48 ba
       -4.4273645e-05 0.008168671 -0.0041552386 -0.0007637768
0000d0 d1 1c d6 b8 0c 8a 55 b8 70 78 ad b8 d7 93 2f b9
       -0.00010209683 -5.0911724e-05 -8.271716e-05 -0.00016744375
0000e0 da c3 ea bb 3b ff 2d ba 3c 7e 39 b8 99 84 a4 ba
       -0.0071644606 -0.00066374586 -4.4225002e-05 -0.0012551724
0000f0 0e 02 98 bb 6f 2a 6f 3c 34 86 06 bc 26 08 2b b9
       -0.004638917 0.014597519 -0.008210707 -0.00016310866
000100 f9 f9 34 b5 f3 a3 89 bc df 12 a8 b9 21 3c e3 38
       -6.7418983e-07 -0.01680181 -0.00032057517 0.000108354034
000110 80 53 1a bb 6c e9 bd 3a 9f 17 ba b9 ee a5 63 b6
       -0.0023548305 0.0014489121 -0.00035494284 -3.392222e-06
000120 8e cc 09 bb 4c 8d 0b b9 e6 93 02 b7 f0 39 03 ba
       -0.0021026465 -0.0001330871 -7.783039e-06 -0.0005005887
000130 fa 91 71 bc 54 72 52 b9 10 a8 4f bc 81 41 de b7
       -0.014744276 -0.00020069751 -0.012674347 -2.6494965e-05
000140 09 0f 66 b8 8f 38 0a b8 b4 e2 9d b7 27 2a ad b9
       -5.4850276e-05 -3.295444e-05 -1.8821425e-05 -0.00033028537
000150 ef e3 eb ba e6 89 82 3c 1e 0d ff b8 3d c4 81 bc
       -0.0017997007 0.015934896 -0.00012161791 -0.015840644
000160 b3 c5 87 bb 55 c4 9c bc 6f 77 7a bc 65 8e 3c 32
       -0.0041434406 -0.019136587 -0.015287264 1.0975417e-08
000170 14 66 9b 38 8c 35 df b5 de d7 c7 b9 16 fe 1d 38
       7.4099895e-05 -1.6630379e-06 -0.0003811707 3.7668353e-05
000180 df d7 e0 3b d5 4d 8a 3b 14 41 a6 b9 d3 42 e5 b6
       0.0068616713 0.004220704 -0.00031710474 -6.832511e-06
000190 71 0b 08 b6 a9 55 5e bc 58 f9 e7 ba 2a ca 40 b9
       -2.027224e-06 -0.013570228 -0.0017698212 -0.00018385859
0001a0 6b e6 80 bc c3 09 88 b9 11 fa 95 b7 ac f2 ad ba
       -0.015734872 -0.00025947214 -1.787863e-05 -0.0013271174
0001b0 5d 22 fb ba 0d dc ba b5 ae bb 35 b6 1b 39 37 bc
       -0.0019160021 -1.3922123e-06 -2.7080346e-06 -0.011183049
0001c0 5d fb 94 bc 60 46 b1 bb c3 82 77 b7 60 5d ea bc
       -0.018186266 -0.0054100007 -1.4752793e-05 -0.028608978
0001d0 45 28 8d bb 25 16 74 ba a3 82 78 b9 42 76 31 b5
       -0.004307779 -0.0009311161 -0.00023699789 -6.6109726e-07
0001e0 46 22 ea b3 18 33 b2 b4 e6 29 26 bb dc a7 d4 b4
       -1.09027084e-07 -3.319226e-07 -0.0025354563 -3.961021e-07
0001f0 92 81 02 bc e2 ae 7c bc e9 65 4f b7 1d 1d 20 b9
       -0.007965462 -0.015422555 -1.2361889e-05 -0.00015269635

fc2.weight f4 [128, 132]
000000 3f 71 b5 32 d2 72 c6 b2 d0 d7 24 b3 80 a9 0d 35
       2.1122672e-08 -2.3102448e-08 -3.8380506e-08 5.277325e-07
000010 29 ce d0 33 92 22 03 34 99 fb 9a 36 18 0c 1f 30
       9.723255e-08 1.2212902e-07 4.6188475e-06 5.786105e-10
000020 c1 43 77 2d 82 cf 14 31 6a d8 26 33 ce 53 e8 35
       1.4055369e-11 2.165479e-09 3.8846714e-08 1.7309737e-06
000030 28 7f c9 30 f5 4b 9f 31 02 d7 92 33 e4 d0 28 33
       1.4660815e-09 4.6361444e-09 6.8377645e-08 3.9305533e-08
000040 14 ee 93 33 48 47 2f 31 a6 ac d8 35 1c fe ec b2
       6.888527e-08 2.550637e-09 1.6143501e-06 -2.7589572e-08
000050 36 f5 be 33 ae 8e 14 34 46 24 45 33 48 a6 e9 35
       8.892168e-08 1.383548e-07 4.5900627e-08 1.7408247e-06
000060 7a e8 cf 36 6e 9b d7 31 67 5d 33 b4 c4 f4 13 b6
       6.1961446e-06 6.274994e-09 -1.6704654e-07 -2.204718e-06
000070 90 78 32 31 17 ef a1 33 d4 0d 81 b5 d3 57 81 33
       2.597094e-09 7.540637e-08 -9.615273e-07 6.023006e-08
000080 96 9f 9f b3 df ca 8a 36 19 6f 8d 30 32 7f 82 2f
       -7.433043e-08 4.136338e-06 1.0290676e-09 2.373724e-10
000090 0b cc 6a b4 6c 42 fc 33 7d 38 06 33 20 73 38 32
       -2.1867179e-07 1.17467465e-07 3.1250682e-08 1.0736386e-08
0000a0 8a 1f 56 36 a2 ae 50 30 36 b0 07 33 4c b3 a9 37
       3.1906843e-06 7.591813e-10 3.15924e-08 2.0229862e-05
0000b0 ec d2 e6 35 22 c3 1a 34 08 da 36 b5 ae 54 52 34
       1.7197722e-06 1.4413357e-07 -6.811756e-07 1.958858e-07
0000c0 f4 e5 c7 b2 ea b4 0b b6 18 a5 44 36 7c 46 5b 37
       -2.327122e-08 -2.081792e-06 2.9302373e-06 1.3069828e-05
0000d0 f7 48 01 b5 74 cf f9 32 e2 2e cc 32 2e bb fd 33
       -4.816242e-07 2.9081754e-08 2.3770045e-08 1.18152784e-07
0000e0 50 cc 53 b5 c6 3b a0 34 2a 50 11 33 c0 1d b3 b3
       -7.890094e-07 2.9845813e-07 3.3833352e-08 -8.3407485e-08
0000f0 68 29 02 b6 3e f2 07 b5 55 dd db 34 56 ef 30 b3
       -1.9395611e-06 -5.064393e-07 4.095297e-07 -4.1195868e-08
000100 a0 20 95 2d 8c a1 a0 35 40 4f 85 b1 28 b9 90 35
       1.6953827e-11 1.1967945e-06 -3.879819e-09 1.0782724e-06
000110 0a 07 4d 34 a7 d8 b5 b5 17 08 75 35 6e f1 61 32
       1.9094674e-07 -1.3548605e-06 9.1281385e-07 1.31516185e-08
000120 f6 ee 1c 36 1b d6 45 34 78 8f a0 30 4b 62 46 36
       2.3384905e-06 1.8424946e-07 1.1682308e-09 2.9561513e-06
000130 10 ff 14 37 4e 6e 57 33 ef 7c cf b5 b4 e0 88 33
       8.880874e-06 5.015891e-08 -1.5459062e-06 6.373867e-08
000140 76 fe f2 b2 05 53 c6 31 5c 91 84 31 10 14 86 35
       -2.8288223e-08 5.7719967e-09 3.858231e-09 9.989617e-07
000150 32 6c 94 34 43 49 b6 36 49 c7 be 34 46 48 17 35
       2.764587e-07 5.4325515e-06 3.5535257e-07 5.6357055e-07
000160 1c 4e 5d 35 03 80 64 b5 0a 62 6a 36 f8 2e ad 2d
       8.244258e-07 -8.51229e-07 3.4925783e-06 1.9688681e-11
000170 58 20 5d 36 37 50 0f 30 e0 11 e9 34 f7 a5 e4 33
       3.2950393e-06 5.213709e-10 4.3412638e-07 1.0647266e-07
000180 b0 f2 31 b6 3b e7 51 b5 10 bc d2 32 da 51 0a 30
       -2.6516318e-06 -7.819505e-07 2.4532739e-08 5.0320426e-10
000190 a6 9b 33 30 e3 20 c7 35 86 6b 36 34 18 f2 d5 33
       6.534101e-10 1.4836227e-06 1.6989188e-07 9.962622e-08
0001a0 5a 2f b9 36 96 64 1f 33 e4 1a 26 30 74 d9 a9 35
       5.518942e-06 3.7111555e-08 6.042866e-10 1.2654768e-06
0001b0 28 47 a4 34 63 4d e9 31 58 b7 27 31 b8 7e e6 36
       3.0599153e-07 6.7899903e-09 2.4405917e-09 6.869286e-06
0001c0 d2 df 20 37 e8 b5 17 b4 9c ca 92 31 78 6a 85 37
       9.588855e-06 -1.4129148e-07 4.2721933e-09 1.5904414e-05
0001d0 0c 04 2e 36 1a 60 a3 34 8c 81 d6 35 6c 63 99 2f
       2.5930376e-06 3.043104e-07 1.5981946e-06 2.790118e-10
0001e0 e8 9d 22 2e 28 38 e3 31 4a 81 03 36 6d d3 09 31
       3.6974784e-11 6.6129537e-09 1.9595777e-06 2.0056306e-09
0001f0 21 98 12 37 c2 4e e1 b5 68 74 36 33 18 ae 55 34
       8.737698e-06 -1.6786728e-06 4.2481048e-08 1.9900506e-07
000200 e6 6e 1c b7 f0 16 9b 36 98 dc 67 b6 59 29 db 35
       -9.324145e-06 4.6220302e-06 -3.4550085e-06 1.6328805e-06
000210 72 ee f1 b0 16 d4 17 b2 ee 1c 21 31 77 bd 03 b3
       -1.7602828e-09 -8.83758e-09 2.3445028e-09 -3.067313e-08
000220 44 14 cf 30 17 a7 83 b2 00 29 aa 34 b5 36 8d ae
       1.5066992e-09 -1.532639e-08 3.16948e-07 -6.4216556e-11
000230 26 5d e4 ac 0d ec 81 af dd 30 44 b0 8b c9 80 b3
       -6.4904913e-12 -2.3632687e-10 -7.1373824e-10 -5.997125e-08
000240 35 6c 65 ae 7b 55 32 b0 c1 53 30 b2 1a 84 02 b2
       -5.216468e-11 -6.48775e-10 -1.0263592e-08 -7.597032e-09
000250 78 80 be b0 32 88 c9 ae 4a ac 1d b2 28 21 93 30
       -1.3860832e-09 -9.164615e-11 -9.177777e-09 1.0705081e-09
000260 20 50 15 2f 88 8c e3 b2 b6 90 91 b1 f6 5f d8 b3
       1.3579937e-10 -2.6490184e-08 -4.236507e-09 -1.0075739e-07
000270 82 f3 1b 34 dc 3a 45 af 1f 80 6d b3 ae 4a dc 33
       1.4524088e-07 -1.7937957e-10 -5.5297388e-08 1.02581325e-07
000280 82 4a 16 b1 33 cc dd b1 65 ad 9e b3 d7 16 51 b2
       -2.1870226e-09 -6.4551613e-09 -7.3889886e-08 -1.2170594e-08
000290 69 32 3a b3 7f 6f cc 33 fc cd 43 ae 51 af a7 2e
       -4.3352347e-08 9.519771e-08 -4.4520818e-11 7.625423e-11
0002a0 d7 de 2b 31 4a 93 24 b2 87 a8 cc af 0a dc 4a b1
       2.5010445e-09 -9.579546e-09 -3.722713e-10 -2.9519946e-09
0002b0 a6 df 9a b3 e2 d9 c0 2c 7f 01 d5 2f 20 a3 99 b0
       -7.211865e-08 5.481158e-12 3.8745537e-10 -1.1178578e-09
0002c0 2a ff 63 b4 88 84 e4 ae 68 d3 9c b1 f9 84 8c b2
       -2.123385e-07 -1.0391782e-10 -4.5642317e-09 -1.6358614e-08
0002d0 f3 d0 7d b0 78 d3 c1 b4 48 0e a8 b2 50 2e 4b 33
       -9.23378e-10 -3.6102915e-07 -1.9564268e-08 4.730674e-08
0002e0 a2 83 ef b1 a0 89 d1 b0 0b 8e 94 b1 2d c5 d2 b2
       -6.9707804e-09 -1.5245867e-09 -4.3235153e-09 -2.4536883e-08
0002f0 a0 a2 88 34 a6 27 e3 b3 3e 05 cb 2f 88 1f 05 30
       2.54503e-07 -1.0577723e-07 3.692921e-10 4.8429927e-10
000300 7c d2 8e 33 b8 80 65 33 28 00 9f 33 f0 2b 9e b0
       6.650677e-08 5.3435286e-08 7.404043e-08 -1.1508501e-09
000310 dd 3d 9a 2c b8 10 44 33 a2 a2 4b 31 dc df 10 b3
       4.3838115e-12 4.565001e-08 2.9632834e-09 -3.373121e-08
000320 5d 22 fc b2 59 7b 67 33 4f 08 23 b1 b6 9f b6 30
       -2.9352288e-08 5.3896063e-08 -2.3724345e-09 1.3287635e-09
000330 56 a9 7a b4 56 19 66 b1 1a 2d 9f 2e f6 95 9c b2
       -2.3344668e-07 -3.3483807e-09 7.2384945e-11 -1.8228985e-08
000340 8e bf 35 33 1a e9 e5 b1 dc bb 60 b4 31 17 8f b1
       4.2316564e-08 -6.6912778e-09 -2.0929969e-07 -4.1644843e-09
000350 4a 3c ec b0 48 3c 23 b1 8c 98 81 b0 db 42 92 b2
       -1.7188395e-09 -2.3753888e-09 -9.429342e-10 -1.702704e-08
000360 e2 0d c5 b1 11 57 71 b4 44 c4 08 b1 5b 9d 41 b4
       -5.735033e-09 -2.2476549e-07 -1.9902169e-09 -1.8031771e-07
000370 07 97 88 33 a8 e7 38 34 98 13 c9 b3 54 87 1c ad
       6.360465e-08 1.7220611e-07 -9.363356e-08 -8.897622e-12
000380 32 93 cd b3 b0 b3 b0 ae 4a ba 88 b2 cd 6f 17 30
       -9.572831e-08 -8.035472e-11 -1.5917198e-08 5.509236e-10
000390 00 da f0 2f 30 0f ea b3 e0 34 d0 af 5b 1b 7c ad
       4.3810644e-10 -1.0899237e-07 -3.787255e-10 -1.4330616e-11
0003a0 d9 ca 24 af 50 6b 78 32 cf f5 13 b2 db 57 82 b2
       -1.4987779e-10 1.44599e-08 -8.612417e-09 -1.5173944e-08
0003b0 54 62 5d 33 04 73 99 b1 54 8a a6 2f bc c1 3d 32
       5.1545e-08 -4.465962e-09 3.0293512e-10 1.1045298e-08
0003c0 e7 bc a7 b3 e5 d7 1e b0 6f 12 13 af e4 6a 86 34
       -7.8109046e-08 -5.778687e-10 -1.3376121e-10 2.5037218e-07
0003d0 38 be 9e 34 3b 5b a7 b3 b6 74 53 b0 f2 5b 3b b2
       2.9568196e-07 -7.793138e-08 -7.692721e-10 -1.09057385e-08
0003e0 74 a5 e1 b1 d8 ef c5 b2 56 df 4d b2 58 6a 4f ad
       -6.5671717e-09 -2.3042887e-08 -1.1983351e-08 -1.1790201e-11
0003f0 7a 7d c0 2a 40 34 22 ab 24 48 d6 b1 c9 06 98 2d
       3.4193118e-13 -5.7626473e-13 -6.236421e-09 1.7283413e-11

fc2.bias f4 [128]
000000 d6 10 0d b7 09 fd ff b4 63 17 15 b7 d7 f2 fd b4
       -8.408175e-06 -4.768156e-07 -8.886537e-06 -4.7301612e-07
000010 26 7c 73 b7 57 92 bd b2 81 9c 16 b8 e0 95 4b b4
       -1.4512834e-05 -2.2069043e-08 -3.5908542e-05 -1.8960372e-07
000020 7d 2b 1d ba 28 07 cc b2 ef 56 f3 a9 ed 52 b2 ad
       -0.0005995555 -2.375198e-08 -1.08064484e-13 -2.0273084e-11
000030 14 36 53 ac 25 0c 8f b6 dc a3 d9 ba 18 9d 4f b9
       -3.0014923e-12 -4.263146e-06 -0.001660462 -0.0001979958
000040 1d eb f7 b2 5f e4 f9 b2 0b 2a a1 b1 25 8c 91 b7
       -2.8861502e-08 -2.9091266e-08 -4.6904964e-09 -1.7350607e-05
000050 74 04 55 b8 5f b2 02 b9 2f 20 2d b7 79 7a 12 b8
       -5.0787305e-05 -0.00012464215 -1.0319097e-05 -3.4923174e-05
000060 f3 0d 89 b1 fc 50 9c b9 9a b8 c2 b5 fd ed 75 ba
       -3.9888106e-09 -0.00029814977 -1.4507852e-06 -0.00093814713
000070 60 9b 36 b5 3d c4 9c 3d 9e da 01 b6 ae da c6 ae
       -6.8026384e-07 0.07654617 -1.934975e-06 -9.042843e-11
000080 2c f6 a8 b9 1a f2 b4 b6 30 7c 51 b5 15 0b 9a b4
       -0.0003222687 -5.3926024e-06 -7.8039284e-07 -2.8692799e-07
000090 60 fc 45 b5 03 a9 41 3d 5b 67 ae b5 31 ee 07 b2
       -7.375547e-07 0.047280323 -1.2994091e-06 -7.912193e-09
0000a0 ee 9e 8b b9 f5 13 d9 b5 d9 29 e1 b8 58 37 eb b1
       -0.00026630558 -1.6173568e-06 -0.00010736631 -6.845692e-09
0000b0 fd b4 84 b3 dc 2a 8f b6 1a 50 87 af 82 c0 87 b4
       -6.1796506e-08 -4.2667216e-06 -2.4613273e-10 -2.5285777e-07
0000c0 31 b7 8f b8 90 88 63 34 5b e0 98 33 b4 d4 16 ac
       -6.8528934e-05 2.1190704e-07 7.1188616e-08 -2.1434356e-12
0000d0 18 74 86 a8 29 c0 a0 b0 79 30 e6 b4 1b 92 17 b5
       -1.4927336e-14 -1.1696147e-09 -4.2876107e-07 -5.6464495e-07
0000e0 80 91 9b af 49 3a 4a af 9e c9 06 b7 8a d8 8c b4
       -2.829772e-10 -1.83925e-10 -8.033965e-06 -2.6234585e-07
0000f0 50 66 4e b9 79 0b 08 b4 c6 3c c1 ba 55 23 37 b3
       -0.00019683805 -1.2670161e-07 -0.0014742843 -4.2640142e-08
000100 fc 8a bd b6 63 74 e8 97 58 48 47 33 24 d3 33 ba
       -5.648819e-06 -1.5022029e-24 4.6399094e-08 -0.00068597705
000110 f9 ed 50 b3 51 1d 3e b2 6c 2d 79 ba bb 06 d9 b5
       -4.864521e-08 -1.1066121e-08 -0.00095053646 -1.6169719e-06
000120 7f 96 10 bb 4f d1 d8 b1 c0 e5 1e b4 be bd 81 a9
       -0.002206236 -6.310223e-09 -1.4798479e-07 -5.761666e-14
000130 cd 63 4b b9 9a b7 fd b4 24 ea 64 b9 aa a1 85 b7
       -0.00019396767 -4.725851e-07 -0.00021830999 -1.5930116e-05
000140 21 c1 ab b0 7f 98 54 b8 53 03 72 3d 50 1e af b8
       -1.2496778e-09 -5.0686762e-05 0.0590852 -8.3502964e-05
000150 68 d1 87 b5 1b 35 0c b8 1b 39 2e b0 c7 02 4f 80
       -1.0119229e-06 -3.342806e-05 -6.3381983e-10 -7.256e-39
000160 53 be 77 b5 35 8d 79 b0 06 94 aa b9 80 46 82 ad
       -9.229163e-07 -9.078634e-10 -0.00032535213 -1.4810597e-11
000170 a1 dd 1b b4 fd 86 dd b7 ed e9 b7 34 8c f1 4d b8
       -1.4516128e-07 -2.6408112e-05 3.425661e-07 -4.9100767e-05
000180 cb 91 19 ba 14 ef 8b b9 de f3 0b b3 e2 d4 fc b9
       -0.00058582117 -0.00026690273 -3.2585255e-08 -0.00048223796
000190 6c 0a 10 b1 0c 4e 62 bb 36 5b c0 b4 38 89 23 bb
       -2.0960682e-09 -0.0034531383 -3.5829152e-07 -0.0024953615
0001a0 8c 4c 6d b0 19 0f d0 b5 62 1e 53 ba 21 68 ee ad
       -8.632888e-10 -1.5501602e-06 -0.00080535386 -2.710371e-11
0001b0 ed 15 f1 b2 c0 19 3f b3 76 30 95 b6 96 7c 45 b0
       -2.8066063e-08 -4.4494072e-08 -4.4461876e-06 -7.184523e-10
0001c0 b3 98 e4 b6 e8 aa 4c b3 39 9a 41 b9 a8 97 45 b9
       -6.812706e-06 -4.765289e-08 -0.00018463367 -0.0001884388
0001d0 60 3e 83 ac ef 57 11 b1 ef 47 28 b2 3c 02 eb b1
       -3.730169e-12 -2.1150262e-09 -9.795243e-09 -6.839654e-09
0001e0 d1 eb e5 a8 e8 14 3e ac 28 9f 27 b3 11 ef b3 af
       -2.5526376e-14 -2.701223e-12 -3.902747e-08 -3.2729777e-10
0001f0 68 70 55 b4 66 8e df b7 89 89 2b b9 f4 08 11 b6
       -1.9878064e-07 -2.6649981e-05 -0.00016359067 -2.1611895e-06

fc3.weight f4 [1, 128]
000000 0f fe 86 b6 35 f7 86 35 8d 37 35 38 f5 65 a9 b4
       -4.0230875e-06 1.0055725e-06 4.32055e-05 -3.1552887e-07
000010 36 7c 2a b6 84 a4 78 34 99 1d ac b7 f8 b6 01 36
       -2.5404274e-06 2.315665e-07 -2.051778e-05 1.9329e-06
000020 79 62 a8 ba 6c 5c d9 b0 54 e9 2b aa 11 fd b2 2e
       -0.001284673 -1.5815096e-09 -1.5268803e-13 8.1394565e-11
000030 79 63 e6 2c a0 8f 8b 38 38 66 e5 3a 18 e9 bb 39
       6.548037e-12 6.654789e-05 0.0017501777 0.00035841088
000040 92 ab 14 33 58 bc 2b 35 56 cc a4 b1 79 43 85 35
       3.4614978e-08 6.397654e-07 -4.7962585e-09 9.928909e-07
000050 42 91 84 3a 5b 11 c6 39 85 2c 67 b8 c5 b6 bf b9
       0.0010114091 0.00037778434 -5.5116154e-05 -0.00036566533
000060 21 97 dd 31 3e e5 a6 ba 17 f5 63 b6 dc e6 5e bb
       6.449128e-09 -0.0012733114 -3.3968297e-06 -0.0034012115
000070 94 b7 90 b6 42 cf 78 3e b4 da 5d b7 a6 10 59 2f
       -4.3129057e-06 0.24297813 -1.3223547e-05 1.974195e-10
000080 7b 1a 2d 3a 91 ed ef b6 50 aa fc b5 40 36 a2 b4
       0.0006603372 -7.1504114e-06 -1.882503e-06 -3.0214323e-07
000090 17 67 cf b5 83 54 fb 3e b5 93 98 37 65 ad 25 b4
       -1.5452705e-06 0.49087915 1.8188593e-05 -1.5429903e-07
0000a0 d3 dd b1 3a b2 58 25 b6 ad b0 68 b8 62 44 b4 b1
       0.0013570137 -2.4638543e-06 -5.5477652e-05 -5.2464637e-09
0000b0 e6 74 e4 35 36 1f aa b7 fc 1b 05 30 84 18 37 34
       1.7021346e-06 -2.0280113e-05 4.8424886e-10 1.7052122e-07
0000c0 60 89 e8 3a 82 61 03 b7 ab 58 da 33 a7 5e 0e ac
       0.0017741136 -7.830911e-06 1.0167545e-07 -2.0231956e-12
0000d0 c4 ed 4c a9 2d 87 47 b1 27 11 f9 34 7d 40 c8 b3
       -4.5503328e-14 -2.903515e-09 4.6392344e-07 -9.324956e-08
0000e0 06 97 1e b0 dc da 66 b0 84 25 80 b7 81 51 90 b6
       -5.769468e-10 -8.398453e-10 -1.5276259e-05 -4.3010227e-06
0000f0 cd 32 9d bb 7e 90 e0 34 0f bf 2e bb 36 23 57 33
       -0.0047973157 4.1828383e-07 -0.0026664173 5.0090613e-08
000100 c6 4f 96 b4 d3 cc 70 98 38 0e 8e b2 f4 45 09 ba
       -2.799772e-07 -3.1122683e-24 -1.6537442e-08 -0.0005236559
000110 07 b2 40 b3 26 3c 08 ae 17 d5 eb b9 cc f0 98 35
       -4.48654e-08 -3.0976242e-11 -0.00044981457 1.1394964e-06
000120 81 b6 c5 ba bc c3 ae 32 ba 9d 26 b3 b1 ab d0 a9
       -0.0015084298 2.0345276e-08 -3.879334e-08 -9.266839e-14
000130 6c 33 27 3b 31 1b 55 36 42 f8 05 ba 2b b4 d4 37
       0.0025512828 3.17553e-06 -0.00051105407 2.5356267e-05
000140 51 3e 4d b0 64 b6 ab b7 6c 39 94 3e ba fc e8 38
       -7.466712e-10 -2.046972e-05 0.2895006 0.00011109696
000150 bf 58 25 35 ae 1c b7 b9 3d 00 dd 30 91 2b 3d 80
       6.159643e-07 -0.00034925848 1.6079934e-09 -5.617594e-39
000160 39 9e c6 b5 04 b3 c7 30 e7 69 1f 3a d4 7e 03 ad
       -1.4798198e-06 1.4530035e-09 0.00060811493 -7.474649e-12
000170 b6 d0 ae 34 46 2c 38 b8 14 af 0c 35 97 12 5e 38
       3.2561883e-07 -4.391025e-05 5.2408836e-07 5.2946238e-05
000180 c4 ed 82 bb 45 f6 1d bb 64 76 f0 b2 85 4e 5f 39
       -0.003995629 -0.0024103087 -2.7993515e-08 0.00021296188
000190 a0 d1 b3 b2 6f cd a9 3b 6c aa 9f b5 64 ec d3 3b
       -2.0933669e-08 0.0051819603 -1.1896022e-06 0.006467389
0001a0 6a 09 a2 b1 64 a9 4b b6 2c a8 9a ba f4 12 7a 2f
       -4.715891e-09 -3.0347956e-06 -0.0011799387 2.2744101e-10
0001b0 c2 16 35 35 01 3a 63 b4 32 42 5c 37 42 19 db 30
       6.746087e-07 -2.1162124e-07 1.3128434e-05 1.5941526e-09
0001c0 b7 ae 96 b7 13 de 3d 34 a6 70 07 3a 66 a7 48 b8
       -1.7962751e-05 1.7682787e-07 0.0005166627 -4.7839618e-05
0001d0 37 cb 8f 2d 8a 75 ef b1 fe 39 19 b3 e9 88 17 b2
       1.6347463e-11 -6.969178e-09 -3.5675832e-08 -8.820487e-09
0001e0 88 53 51 a9 3e e4 08 2e 90 77 fa 32 e8 45 48 30
       -4.6479774e-14 3.112554e-11 2.9158201e-08 7.285892e-10
0001f0 ed eb a4 b3 b5 fa 6f b8 80 89 68 ba 74 51 fc 37
       -7.67976e-08 -5.721553e-05 -0.0008870587 3.007867e-05
