checkpoint_actor.pth (torch_old, 86445 bytes, 6 tensors)

fc1.weight f4 [128, 33]
0.22104144 0.2575953 -0.03991704 0.041169513 0.02280803 0.014834423 -0.05674889 -0.07420511
-0.019286066 0.09770186 -0.09400851 -0.02870116 -0.0041325726 0.3998465 0.29692867 0.021325711
-0.04605515 0.055097524 -0.005375858 0.00623173 0.2149038 -0.109629996 0.06681806 0.17871013
-0.021511607 0.17123495 0.061353922 -0.47677222 0.17126128 -0.00062874705 0.394868 0.009878822
-1.08288 -0.04014306 0.19852705 0.023421818 0.014162438 0.08047032 -0.036001746 -0.1066544
0.15075056 0.20639569 0.12033769 0.14004955 -0.03187898 -0.45381612 -0.12800394 -0.21951336
-0.2324616 0.039176382 -0.0039804657 0.13059662 0.055857543 -0.005670224 0.11127803 -0.13654174
-0.20934519 0.0591334 -0.33270258 0.15140592 0.43509993 0.45482907 -0.038154867 -0.3656948
0.04574474 0.09773793 -0.09070356 0.2573688 0.04425129 -0.034146696 -0.047701124 0.1317879
0.0073046247 -0.220295 -0.38094416 0.07183562 0.3345133 0.044525918 -0.30560735 -0.076317824
0.31312096 0.15373987 0.08731347 0.040313557 -0.10339314 -0.06860102 -0.46375576 0.18855304
-0.12838113 -0.21064997 0.18812793 0.2822154 0.4729726 -0.24027476 -0.24126151 -0.012209043
0.2733717 -0.016397402 -0.7977442 0.23407844 -0.09519692 -0.15877372 0.03647649 0.0046965363
0.08818685 0.05185381 -0.1410598 -0.14048226 -0.13085453 -0.035034925 0.14074813 0.12718423
-0.14374854 -0.030819438 0.18245572 -0.08228676 -0.03125725 0.13759169 0.10502676 -0.009768731
-0.052287318 0.03379564 -0.028995436 -0.1567041 0.033111632 0.46903527 0.39730695 -0.092760764
0.057519756 -0.49959123 -0.036514554 -1.8540086 0.07541397 -0.064561345 0.060737863 -0.08325616
0.062321246 -0.050375387 -0.007401099 -0.08414532 0.06912495 0.04485881 0.13351052 0.03259943
0.0832804 0.49634054 -0.11231753 -0.24610706 -0.07883865 0.016951965 -0.062802136 0.103776135
-0.09856564 0.19091178 -0.052637465 0.3023916 -0.07017052 -0.16438189 -0.5417899 0.02332697
0.28267506 -0.074457474 -0.09089783 0.07039768 1.3477601 0.25065845 0.1377962 -0.17060238
-0.019262396 0.04021521 0.008199345 -0.03364274 0.23587784 0.19982077 0.23777382 -0.16623257
0.036560595 -0.1628632 0.13253324 0.2979004 -0.22334063 -0.023219079 -0.10176466 -0.034448456
-0.121907495 -0.056197032 -0.11497622 -0.025151648 -0.33691826 0.22460261 0.040119655 0.2937513
-0.34256777 0.38301438 -0.07881664 0.3815286 -0.008582771 -0.8325926 -0.0017969864 0.061292153
0.27363285 -0.015993776 -0.09972249 -0.061629966 0.1941322 -0.10427252 0.29671174 0.23885922
0.18065445 0.11000902 -0.20267712 0.17253503 0.33411014 0.43890318 0.02432709 -0.0058098817
0.04420997 0.1059215 0.45998493 0.018977389 0.29991454 -0.03888791 0.20502964 0.13785231
-0.38048047 0.2655829 -0.18757841 -0.029596444 -0.36262858 -0.04791319 0.0950123 0.26367056
0.13052236 -0.45165426 0.0035774412 -0.20218836 -0.057657387 0.1307052 -0.002131815 0.09146734
-0.17495824 -0.05703156 0.047978196 -0.028950509 0.16021301 0.3107459 -0.54893225 -0.064626366
0.14665112 -0.047098704 0.18704596 -0.04447126 0.037198912 -0.043352965 0.21868034 0.35347873
00000000: b058 623e 88e3 833e 0d80 23bd 5da1 283d
00000010: e8d7 ba3c 140c 733c 8671 68bd d9f8 97bd
00000020: d0fd 9dbc ea17 c83d 8987 c0bd b21e ebbc
00000030: 886a 87bb aeb8 cc3e 0907 983e 42b3 ae3c
00000040: 53a4 3cbd f1ad 613d f727 b0bb 8a33 cc3b
00000050: be0f 5c3e b185 e0bd e8d7 883d caff 363e
00000060: 1c39 b0bc 3758 2f3e 404e 7b3d 7d1b f4be
00000070: 1e5f 2f3e 80d2 24ba 232c ca3e c8da 213c
00000080: d09b 8abf 0d6d 24bd ad4a 4b3e 1ddf bf3c
00000090: 9209 683c a0cd a43d 9176 13bd 9f6d dabd
000000a0: 5b5e 1a3e 6459 533e 9b73 f63d 2669 0f3e
000000b0: 8993 02bd 965a e8be 7713 03be 1cc8 60be
000000c0: 6a0a 6ebe 6a77 203d 916e 82bb 1fbb 053e
000000d0: e1ca 643d 49cd b9bb bce5 e33d 99d1 0bbe
000000e0: 965e 56be dd35 723d fe57 aabe 270a 1b3e
000000f0: 6bc5 de3e 5bdf e83e 4748 1cbd 593c bbbe
00000100: d65e 3b3d d32a c83d cac2 b9bd d8c5 833e
00000110: d740 353d 68dd 0bbd 4162 43bd 68f3 063e
00000120: a25b ef3b 0395 61be 1d0b c3be 8e1e 933d
00000130: 5445 ab3e cf60 363d 9178 9cbe 854c 9cbd
00000140: 6451 a03e fc6d 1d3e 68d1 b23d d41f 253d
00000150: c8bf d3bd b17e 8cbd 6571 edbe 0c14 413e
00000160: 5876 03be a0b4 57be 9ca4 403e 897e 903e
00000170: 7729 f23e 960a 76be 420d 77be 7008 48bc
00000180: 60f7 8b3e d853 86bc f738 4cbf 42b2 6f3e
00000190: 9af6 c2bd 9495 22be 5f68 153d 67e5 993b
000001a0: 4f9b b43d a964 543d fb71 10be 95da 0fbe
000001b0: bbfe 05be c880 0fbd 4720 103e 953c 023e
000001c0: d132 13be 0c79 fcbc acd5 3a3e f685 a8bd
000001d0: 9a07 00bd d6e4 0c3e 4518 d73d 070d 20bc
000001e0: 3a2b 56bd 4c6d 0a3d d687 edbc 0a77 20be
000001f0: 10a0 073d 6425 f03e d16b cb3e 5bf9 bdbd
00000200: d699 6b3d 6cca ffbe 4990 15bd 2750 edbf
00000210: a472 9a3d bd38 84bd 44c8 783d 3582 aabd
00000220: 9044 7f3d 6c56 4ebd eb84 f2bb 6254 acbd
00000230: 6291 8d3d dfbd 373d fbb6 083e fb86 053d
00000240: ea8e aa3d 5920 fe3e bc06 e6bd 7d03 7cbe
00000250: 2876 a1bd d9de 8a3c 689e 80bd 9588 d43d
00000260: c8dc c9bd 617e 433e 629a 57bd 12d3 9a3e
00000270: 90b5 8fbd ba53 28be beb2 0abf 3418 bf3c
00000280: c9ba 903e 297d 98bd a428 babd a92c 903d
00000290: 6783 ac3f 4e56 803e 721a 0d3e 64b2 2ebe
000002a0: 2ccc 9dbc b4b8 243d 8c56 063c f8cc 09bd
000002b0: f689 713e d19d 4c3e fb7a 733e df38 2abe
000002c0: 90c0 153d 9cc5 26be cbb6 073e 6786 983e
000002d0: 68b3 64be f035 bebc fd69 d0bd d319 0dbd
000002e0: a3aa f9bd dc2e 66bd a778 ebbd d40a cebc
000002f0: 8d80 acbe 3afe 653e 8254 243d 9266 963e
00000300: 0b65 afbe 761a c43e 9e6a a1bd b757 c33e
00000310: c09e 0cbc ca24 55bf dc88 ebba 7b0d 7b3d
00000320: 9b19 8c3e 6105 83bc 4e3b ccbd b46f 7cbd
00000330: 97ca 463e d58c d5bd 9aea 973e 8397 743e
00000340: 7bfd 383e 694c e13d 978a 4fbe 06ad 303e
00000350: 7c10 ab3e ebb7 e03e 9b49 c73c d260 bebb
00000360: 8315 353d 5fed d83d 2583 eb3e 7876 9b3c
00000370: 668e 993e ee48 1fbd 4af3 513e 2829 0d3e
00000380: 56ce c2be 7bfa 873e 8e14 40be 3e74 f2bc
00000390: 74aa b9be 9f40 44bd cf95 c23d d4ff 863e
000003a0: a7a7 053e 3a3f e7be 8173 6a3b 770a 4fbe
000003b0: 272a 6cbd 95d7 053e ecb5 0bbb 3b53 bb3d
000003c0: 4128 33be ed99 69bd c984 443d 9e29 edbc
000003d0: e10e 243e 161a 9f3e d386 0cbf d45a 84bd
000003e0: b62b 163e 92ea 40bd fa88 3f3e 7f27 36bd
000003f0: e35d 183d e192 31bd bded 5f3e 2afb b43e

fc1.bias f4 [128]
0.50784487 -0.24787113 0.39987636 -0.2713856 -0.11181935 0.37708345 -0.40299186 0.2301925
0.28761038 -0.10958614 -0.15558197 -0.28529423 0.40266123 0.30702162 0.09196548 0.33961308
-0.23494184 -0.26816186 -0.31917906 0.03603657 0.51355267 -0.08701501 0.00084526266 0.04279522
0.033049632 0.02639143 -0.19008756 -0.3449661 -0.2724746 -0.014185589 -0.06106802 -0.040139906
0.36549443 0.07221506 0.019479671 -0.23122644 -0.16288407 0.22617118 -0.016912237 0.38748625
-0.079558335 0.14106958 -0.37575936 -0.11012363 -0.42167392 0.10458075 -0.16421504 0.16100001
0.012890727 -0.108787835 -0.5401452 0.18626224 -0.006685529 -0.28335348 -0.1765608 -0.04184155
-0.30058116 -0.28668046 -0.3514469 -0.31969145 0.013378837 0.055628527 -0.15896235 -0.05895307
-0.31329632 -0.15683866 0.09887671 0.011628686 -0.20582515 0.038183596 -0.67079365 -0.12736417
-0.3830084 0.49083114 -0.0756287 -0.040397666 0.16387951 -0.37536472 0.11436724 0.03297885
-0.36329183 -0.6405049 0.003269871 -0.04348212 0.036551964 0.101390526 0.3972384 -0.034929205
-0.114511885 0.30108804 -0.30243182 0.28433043 0.046660114 -0.012119943 0.09480926 -0.2923651
0.41001168 -0.048421666 -0.24365704 0.0077722934 0.20430748 0.5500257 0.04829749 -0.29092476
0.32626945 -0.28841388 -0.016984023 -0.12411096 -0.5861284 0.17191504 0.43481907 -0.011585342
-0.331195 0.60374945 -0.23959708 0.11276152 0.3921438 -0.053181436 0.4639328 0.15418251
0.049183745 0.24498545 0.25947526 0.27706844 0.16137362 -0.3590137 -0.25095347 -0.44844645
00000000: 1f02 023f eed1 7dbe 98bc cc3e 0ef3 8abe
00000010: 8b01 e5bd 1511 c13e f354 cebe 95b7 6b3e
00000020: ab41 933e b36e e0bd e150 1fbe 1612 92be
00000030: 9d29 ce3e f031 9d3e 6658 bc3d c4e1 ad3e
00000040: 9894 70be 834c 89be 706b a3be 159b 133d
00000050: 3078 033f ed34 b2bd 9e94 5d3a 0a4a 2f3d
00000060: 0d5f 073d d732 d83c 50a6 42be 669f b0be
00000070: ca81 8bbe ac6a 68bc 7622 7abd be69 24bd
00000080: 1622 bb3e 7de5 933d d593 9f3c a0c6 6cbe
00000090: 15cb 26be 6b99 673e 888b 8abc 9964 c63e
000000a0: 7bef a2bd 8b74 103e 8863 c0be 7f88 e1bd
000000b0: a5e5 d7be 6f2e d63d fd27 28be 30dd 243e
000000c0: a133 533c 28cc debd f546 0abf 87bb 3e3e
000000d0: 4812 dbbb b513 91be 5bcc 34be 0c62 2bbd
000000e0: c6e5 99be c8c7 92be d9f0 b3be 99ae a3be
000000f0: e932 5b3c bdda 633d 07c7 22be c678 71bd
00000100: 6068 a0be 509a 20be df7f ca3d 3f86 3e3c
00000110: d4c3 52be 6766 1c3d 22b9 2bbf c16b 02be
00000120: ad19 c4be 384e fb3e 38e3 9abd 0678 25bd
00000130: 08d0 273e ce2f c0be 5f39 ea3d d514 073d
00000140: 6301 babe 21f8 23bf 554b 563b 4f1a 32bd
00000150: 83b7 153d d6a5 cf3d d562 cb3e ed11 0fbd
00000160: 3585 eabd 3628 9a3e 58d8 9abe c293 913e
00000170: ad1e 3f3d ba92 46bc 5b2b c23d e1b0 95be
00000180: 0ded d13e cc55 46bd 3b81 79be b9ae fe3b
00000190: fb35 513e 7cce 0c3f 97d3 453d 17f4 94be
000001a0: ca0c a73e fcaa 93be 1422 8bbc e32d febd
000001b0: 830c 16bf 7f0a 303e 9ba0 de3e 72d0 3dbc
000001c0: 6492 a9be 538f 1a3f f058 75be 83ef e63d
000001d0: 12c7 c83e c7d4 59bd 9a88 ed3e 05e2 1d3e
000001e0: e574 493d 77dd 7a3e f1d9 843e eadb 8d3e
000001f0: 203f 253e a5d0 b7be f97c 80be c69a e5be

fc2.weight f4 [128, 128]
-0.13878305 0.09659839 -0.2559345 0.40712327 -0.19724979 0.04079434 -0.13657297 0.19988102
-0.22611114 -0.023484409 0.05202321 0.19238515 0.21719967 0.088453986 -0.23588556 0.03072682
-0.21783894 0.49447477 0.29567814 -0.04800549 0.20665957 0.2188035 -0.029844547 -0.011047176
0.20849575 0.3754681 0.23842518 0.16943552 0.07281116 -0.28889862 -0.13747339 0.051234882
-0.14597611 -0.025645362 0.023364298 0.20468637 0.15102573 -0.42991865 0.11421829 0.031897806
0.14945588 0.10108077 0.007571161 0.059589624 -0.008944113 -0.1564825 -0.23199587 0.08133385
-0.012214333 0.1641707 -0.04867294 0.015429805 -0.21106876 -0.01084302 0.20407917 0.08968215
-0.014037775 -0.0023376301 0.03521689 0.20183717 0.10466609 0.2043252 0.18905227 0.17031053
-0.17794678 -0.0882324 -0.4581604 -0.046222445 -0.333454 0.2398818 0.18752663 0.01894211
-0.011755746 -0.16766477 -0.030958014 -0.026912047 -0.11810671 0.22420245 0.050590508 -0.32376745
-0.020179138 0.40395612 -0.07216398 0.007913835 -0.16795754 0.1380518 -0.05903189 0.08378361
0.10987837 0.068652086 -0.13326663 -0.10224002 -0.039649487 -0.061127663 0.13899106 0.013282356
-0.04172293 0.2602925 0.029735299 0.3023155 -0.30438554 -0.11766706 -0.046988126 -0.33602324
0.2599671 0.23764879 0.09726788 0.2187335 0.061877146 -0.04332747 0.2100864 0.2390481
0.14917822 0.14186442 -0.06302187 0.09906793 -0.3280525 0.016436098 0.42642862 0.0152378995
-0.11987831 -0.09536398 0.08624911 -0.083637774 -0.022845956 0.21600434 0.14817126 0.2681018
0.015718643 0.36307684 -0.18903738 0.019979175 0.4329571 0.30662525 -0.11329454 0.19347529
0.12484209 -0.15308931 0.22167462 0.20751019 0.09500145 -0.016697058 0.31703696 -0.26866287
0.30487 0.59898484 0.57091224 -0.07994796 -0.009426658 0.5125794 0.15003784 -0.5066291
0.017417794 0.09084826 0.06925679 0.13224012 0.45298642 -0.24559824 0.07799502 0.30584568
-0.05077855 -0.018162437 0.14152095 0.6780993 -0.003925963 0.36317942 0.24022892 -0.056436703
0.17845678 0.3509091 0.3277974 0.23140459 0.5578532 0.3136207 0.40902713 0.0077899154
0.22534165 0.14274521 0.13447967 -0.21582824 0.15630683 0.10477774 0.42334607 -0.09612508
0.08014555 0.096059844 0.38174108 0.19683011 0.12793338 -0.18397895 0.41277346 0.30419827
0.29922673 0.16882373 0.121517085 0.06071132 0.33584267 0.46239293 0.22873086 -0.06728558
-0.10696633 -0.16153541 0.40474087 -0.13640736 0.25488928 0.32987726 -0.30827218 -0.041110214
0.2825275 0.4122344 -0.24271429 0.16417739 0.40688083 -0.21189398 -0.28331783 0.34654406
0.32372215 -0.084500186 0.17745104 -0.18498266 0.35094395 0.28995448 0.41719866 -0.06271449
-0.1446044 0.4674477 0.466226 0.08588476 -0.12918007 0.11399708 -0.16601011 0.085161574
-0.10560455 0.23023467 0.05964029 0.17839308 -0.037092257 0.0047925953 0.104437046 0.36887303
0.07448439 -0.045850344 -0.021979548 -0.011896507 -0.2300267 -0.1660122 0.11336689 0.11501097
-0.20564207 0.021839088 -0.17756535 0.11882176 0.0017293281 0.40441522 0.5267719 0.51016796
00000000: 251d 0ebe 60d5 c53d d909 83be 7672 d03e
00000010: d9fb 49be f717 273d c9d9 0bbe 9cad 4c3e
00000020: ae89 67be 6062 c0bc 4a16 553d 9d00 453e
00000030: 9769 5e3e 5d27 b53d fc8b 71be d0b6 fb3c
00000040: 2c11 5fbe cc2b fd3e 2063 973e 68a1 44bd
00000050: 919e 533e 060e 603e 8d7c f4bc 37ff 34bc
00000060: e97f 553e 5b3d c03e bb25 743e 8180 2d3e
00000070: 041e 953d 85ea 93be d3c5 0cbe abdb 513d
00000080: c37a 15be 3916 d2bc 7c66 bf3c 4e99 513e
00000090: 7da6 1a3e 4c1e dcbe 47eb e93d 46a7 023d
000000a0: f60a 193e 6f03 cf3d 8017 f83b 4014 743d
000000b0: 548a 12bc f33c 20be 5390 6dbe 5d92 a63d
000000c0: a01e 48bc 5d1c 283e 475d 47bd 4bcd 7c3c
000000d0: 6922 58be eca6 31bc 21fa 503e 46ab b73d
000000e0: b2fe 65bc ed32 19bb 963f 103d 67ae 4e3e
000000f0: 2d5b d63d a03a 513e eb96 413e e265 2e3e
00000100: ae37 36be 30b3 b4bd 0094 eabe bf53 3dbd
00000110: 7cba aabe 93a3 753e fb06 403e 7c2c 9b3c
00000120: 2c9b 40bc 50b0 2bbe a99b fdbc a776 dcbc
00000130: eee1 f1bd 5495 653e fe37 4f3d d9c4 a5be
00000140: b84e a5bc 56d3 ce3e b5ca 93bd 08a9 013c
00000150: 10fd 2bbe 735d 0d3e 6ccb 71bd be96 ab3d
00000160: e907 e13d 7799 8c3d 0c77 08be 3763 d1bd
00000170: 8067 22bd 0061 7abd ac53 0e3e 3d9e 593c
00000180: aae5 2abd 0f45 853e 7197 f33c 19c9 9a3e
00000190: 6cd8 9bbe 6dfb f0bd 9f76 40bd 3d0b acbe
000001a0: 681a 853e 345a 733e 6234 c73d adfb 5f3e
000001b0: e472 7d3d 2578 31bd e420 573e 06c9 743e
000001c0: 2dc2 183e e844 113e 9c11 81bd 20e4 ca3d
000001d0: 7ff6 a7be ffa4 863c da54 da3e 62a8 793c
000001e0: c282 f5bd 314e c3bd 60a3 b03d 484a abbd
000001f0: 7127 bbbc 3e30 5d3e 35ba 173e a444 893e
00000200: 62c4 803c 35e5 b93e 0493 41be 5eab a33c
00000210: 8eac dd3e fcfd 9c3e f806 e8bd 631e 463e
00000220: 36ad ff3d 72c3 1cbe acfe 623e 8d7d 543e
00000230: 1f90 c23d 45c8 88bc ab52 a23e 2e8e 89be
00000240: ec17 9c3e 1257 193f 4e27 123f c2bb a3bd
00000250: 4572 1abc 6738 033f 85a3 193e 72b2 01bf
00000260: c3af 8e3c a70e ba3d 81d6 8d3d f469 073e
00000270: d6ed e73e 1b7e 7bbe dabb 9f3d ce97 9c3e
00000280: 2bfd 4fbd 64c9 94bc deea 103e ea97 2d3f
00000290: 5da5 80bb a7f2 b93e 92fe 753e 2c2a 67bd
000002a0: 60bd 363e 5caa b33e 10d5 a73e 53f5 6c3e
000002b0: 78cf 0e3f e492 a03e 016c d13e 8c42 ff3b
000002c0: f6bf 663e cd2b 123e 0ab5 093e 1402 5dbe
000002d0: e60e 203e b695 d63d d1c0 d83e 3add c4bd
000002e0: 5a23 a43d 06bb c43d 9173 c33e d58d 493e
000002f0: f800 033e fa64 3cbe 0b57 d33e e0bf 9b3e
00000300: 3f34 993e 21e0 2c3e f3dd f83d 6fac 783d
00000310: 92f3 ab3e c4be ec3e 6c38 6a3e 06cd 89bd
00000320: 2a11 dbbd 8a69 25be 323a cf3e 5fae 0bbe
00000330: d980 823e ace5 a83e dad5 9dbe 2f63 28bd
00000340: 72a7 903e 6310 d33e 188a 78be 1e1e 283e
00000350: af52 d03e bcfa 58be 090f 91be 396e b13e
00000360: e9be a53e 6f0e adbd bab5 353e 186c 3dbe
00000370: edae b33e ea74 943e 109b d53e 7470 80bd
00000380: 2d13 14be 4e55 ef3e 2db5 ee3e 59e4 af3d
00000390: c847 04be 4d77 e93d 8efe 29be 3169 ae3d
000003a0: 3347 d8bd a3c2 6b3e 6049 743d adac 363e
000003b0: 0dee 17bd 340b 9d3b 17e3 d53d eddc bc3e
000003c0: 468b 983d 92cd 3bbd 740e b4bc 91e9 42bc
000003d0: 1f8c 6bbe 1aff 29be e62c e83d df8a eb3d
000003e0: d693 52be e3e7 b23c b1d3 35be d358 f33d
000003f0: 9faa e23a 830f cf3e 86da 063f 5e9a 023f

fc2.bias f4 [128]
-0.36692342 -0.2536409 0.36366105 0.599269 -0.026462348 -0.0019346657 0.040845938 0.005991324
-0.056967106 0.29094255 -0.0037175855 0.318731 -0.3828836 0.5574675 -0.16292104 0.30931422
0.39973006 0.07050236 -0.2829993 -0.0052781207 -0.12400253 -0.50876045 -0.12958805 0.115193024
-0.41869196 -0.02690455 0.43897676 0.12511677 -0.14516686 0.17454395 0.07626293 0.15221673
0.011128325 -0.27297664 -0.13976248 0.131537 0.3262941 0.13158724 -0.026040338 0.09689149
-0.0789285 0.5133831 0.47171313 -0.060838252 0.3925966 -0.05747555 0.43003353 0.1550489
0.42494592 0.06321368 0.05839385 -0.3646461 0.22940996 0.0653991 0.059448153 -0.09176462
0.17898354 0.50616616 0.40464684 0.08287543 0.4104198 -0.39152345 -0.16912866 0.024831468
-0.053097893 0.1644369 -0.031475544 0.18719499 -0.4152395 -0.08794775 -0.38538232 -0.02031151
-0.45184803 0.520736 0.019996032 -0.05396823 0.46430644 0.04943469 -0.30162817 0.31359464
-0.091906 0.07066426 -0.11177006 0.18636775 -0.049693782 0.008044197 -0.029589634 -0.023579337
-0.044370472 0.06637632 0.21313863 -0.038684018 -0.5535787 0.11284732 -0.048912942 0.001244913
0.33053628 -0.21394409 -0.10716378 0.10844679 0.23985618 -0.5514478 0.03460743 -0.0976994
-0.14928174 0.027718281 0.4977756 -0.08441341 0.16182871 -0.1381791 -0.030718798 -0.103592046
-0.03855758 0.09433634 -0.27505994 0.4065015 -0.12144871 -0.06915195 0.0011831668 -0.17225386
0.08865325 0.40172347 -0.4834517 0.6823023 0.14242043 -0.08624585 0.10416798 -0.21177907
00000000: 63dd bbbe 38dd 81be c831 ba3e b169 193f
00000010: 91c7 d8bc 9c94 fdba 124e 273d de52 c43b
00000020: 5756 69bd 6cf6 943e bca2 73bb b630 a33e
00000030: 5209 c4be 31b6 0e3f c6d4 26be 6f5e 9e3e
00000040: 6ba9 cc3e 8b63 903d 49e5 90be 16f4 acbb
00000050: 0af5 fdbd 203e 02bf bbb2 04be 52ea eb3d
00000060: cb5e d6be ee66 dcbc 90c1 e03e 9c1e 003e
00000070: 9fa6 14be a6bb 323e bd2f 9c3d b4de 1b3e
00000080: 9453 363c 98c3 8bbe e51d 0fbe a3b1 063e
00000090: 0510 a73e cebe 063e 8c52 d5bc 0c6f c63d
000000a0: 44a5 a1bd 136d 033f 6284 f13e 8831 79bd
000000b0: 6c02 c93e 7b6b 6bbd 5b2d dc3e 24c5 1e3e
000000c0: 8392 d93e 2d76 813d 642e 6f3d e5b2 babe
000000d0: 72ea 6a3e f7ef 853d e87f 733d 17ef bbbd
000000e0: 7647 373e 1b94 013f df2d cf3e 98ba a93d
000000f0: 8b22 d23e c375 c8be 1030 2dbe 5d6b cb3c
00000100: 2d7d 59bd 2662 283e 80ec 00bd 0bb0 3f3e
00000110: 469a d4be f31d b4bd d550 c5be 5364 a6bc
00000120: a058 e7be f44e 053f b8ce a33c ca0d 5dbd
00000130: 93b9 ed3e 087c 4a3d 026f 9abe 7a8f a03e
00000140: 3739 bcbd 6cb8 903d b4e7 e4bd 30d7 3e3e
00000150: b58b 4bbd cfcb 033c f665 f2bc 7429 c1bc
00000160: d0bd 35bd 4ff0 873d 0341 5a3e 2273 1ebd
00000170: 55b7 0dbf 7f1c e73d f058 48bd 592c a33a
00000180: 0d3c a93e 2914 5bbe af78 dbbd 5a19 de3d
00000190: dc9c 753e af2b 0dbf 85c0 0d3d 9f16 c8bd
000001a0: 50dd 18be 7311 e33c 72dc fe3e f0e0 acbd
000001b0: 6db6 253e d27e 0dbe fda5 fbbc 1128 d4bd
000001c0: 8eee 1dbd 6933 c13d a8d4 8cbe f720 d03e
000001d0: 1aba f8bd 8a9f 8dbd 7d14 9b3a 5163 30be
000001e0: d68f b53d b3ae cd3e fb86 f7be 5dab 2e3f
000001f0: a9d6 113e aaa1 b0bd 0656 d53d 9ddc 58be

fc3.weight f4 [4, 128]
-0.24928588 -0.41584066 0.5869609 0.753894 -0.47070357 -0.18577471 0.12828188 -0.1656353
-0.10975805 0.27260464 0.100326434 0.30585977 -0.40608448 0.6515351 -0.22832327 0.05229902
0.5347866 -0.16576369 -0.18387142 0.39515156 -0.48205444 -0.17914593 -0.023250593 0.15708551
-0.13957505 -0.33447164 0.45019436 0.110521115 -0.40579167 -0.3366905 -0.2045705 0.31513432
-0.06720287 -0.107879505 -0.19830821 -0.17838107 0.2658231 0.30971956 -0.28930008 0.23897025
0.40531465 0.4232964 0.13450097 -0.07021719 0.24580637 -0.41639167 0.65589255 0.38243708
0.37115905 0.075331986 -0.033138037 -0.12838136 0.17218955 0.18576628 0.6083876 0.15768825
-0.25980955 0.39200768 0.59911036 0.2697801 0.4301487 -0.24769735 0.21734117 -0.2886776
0.19827048 0.113242194 -0.054943256 0.3429872 -0.28727946 -0.40082255 -0.33591533 0.40072432
-0.13176425 0.70948964 -0.23491082 -0.19454816 0.4069017 0.23703098 -0.23984852 0.112920135
-0.2130396 0.02297571 0.008567275 0.19016415 -0.16829705 0.03501567 -0.024931796 -0.25015992
-0.255105 0.053848166 0.084182404 -0.1793855 -0.14911743 -0.25975305 -0.06540324 0.17489737
0.5268998 -0.11538693 -0.1792452 0.21916912 0.0565602 -0.2093429 -0.3192811 -0.3411156
-0.36977744 -0.30432585 0.69885176 -0.40069383 0.008951423 -0.22598428 0.20864053 -0.08265231
0.28954026 -0.068124205 -0.34619763 0.3700444 0.107107736 0.23707989 0.062195364 0.024543796
-0.008499893 0.48779824 -0.13465948 0.742755 0.056020558 -0.3803322 -0.29449195 -0.21646973
0.31663042 0.7589352 0.094966136 0.13163804 -0.30663505 -0.6569249 -0.36373204 -0.12992962
-0.17230001 -0.37177083 -0.19326705 0.033614922 -0.10453506 0.11396785 0.89325124 0.5805933
-0.058234174 -0.52944964 0.3829116 0.071566254 -0.18755795 0.6709136 -0.5108467 -0.38134065
0.6652735 -0.42379 0.28307202 -0.40938246 -0.11435142 -0.17677827 -0.31154683 0.29699042
-0.46483958 0.52939534 0.3501779 -0.63092494 0.32449332 -0.10660229 0.26479128 -0.5166549
0.14348146 0.34527704 0.44030175 -0.3696208 -0.06999079 -0.2973522 0.12513597 0.30186573
0.30444267 -0.20132484 -0.7093861 0.54448 -0.49693593 -0.17594244 -0.030124797 -0.28184482
-0.4226126 0.0345967 -0.22331591 -0.5073712 -0.21132375 0.02554505 0.19494992 -0.2859968
0.07962586 -0.51952714 -0.35229006 -0.29959285 0.10758031 0.1501026 0.52850056 -0.289389
0.7982158 -0.0017508661 -0.15738502 -0.21170248 -0.07736399 -0.09598456 1.312571 -0.21680324
0.3339755 -0.6020492 -0.24805856 -0.3051113 -0.2173604 -0.3393641 -0.19588894 -0.12149057
-0.2387992 -0.36235067 -0.18310016 0.8206713 0.85485095 -0.37464428 -0.30282813 -0.061218463
0.047003306 -0.21110341 -0.24121654 -0.17442726 -0.5226362 0.6354605 -0.62839085 -0.27251622
-0.4095728 -0.4640066 -0.056084562 -0.21965446 -0.33925226 -0.1517145 -0.09961128 0.6505689
-0.06830376 -0.41770303 0.41808918 0.73062104 0.037967775 -0.21176635 -0.05072033 -0.11072509
-0.29798532 -0.10020018 0.64798355 0.016923299 -0.014855727 -0.17027041 -0.45303214 0.7184491
00000000: cc44 7fbe 11e9 d4be 1243 163f 32ff 403f
00000010: 0f00 f1be ba3b 3ebe 535c 033e 4d9c 29be
00000020: d4c8 e0bd d692 8b3e f277 cd3d a799 9c3e
00000030: 4eea cfbe 01cb 263f 93cd 69be 7f37 563d
00000040: c6e7 083f f5bd 29be ca48 3cbe 4e51 ca3e
00000050: d7cf f6be 0872 37be 0778 bebc 06db 203e
00000060: c3ec 0ebe de3f abbe e07f e63e e558 e23d
00000070: edc3 cfbe b262 acbe ee7a 51be 4959 a13e
00000080: a9a1 89bd eeef dcbd 4f11 4bbe 87a9 36be
00000090: f719 883e 9093 9e3e 241f 94be 9eb4 743e
000000a0: 6785 cf3e 4eba d83e 9fba 093e 08ce 8fbd
000000b0: aab4 7b3e 4a31 d5be 93e8 273f cbce c33e
000000c0: 8f08 be3e a847 9a3d c0bb 07bd 6776 03be
000000d0: 7552 303e 8439 3e3e 4abf 1b3f 0779 213e
000000e0: c205 85be 3bb5 c83e 4c5f 193f 9e20 8a3e
000000f0: 733c dc3e 60a4 7dbe af8e 5e3e 8dcd 93be
00000100: 6b07 4b3e 86eb e73d 2e0c 61bd 059c af3e
00000110: 4b16 93be 9d38 cdbe 18fd abbe bd2b cd3e
00000120: 35ed 06be 1da1 353f 768c 70be a237 47be
00000130: 6b55 d03e 40b8 723e da9a 75be ac42 e73d
00000140: 0e27 5abe 8e37 bc3c c15d 0c3c 64ba 423e
00000150: 1056 2cbe 976c 0f3d c43d ccbc f614 80be
00000160: 1f9d 82be e58f 5c3d d367 ac3d d5b0 37be
00000170: 3db2 18be 5afe 84be 22f2 85bd 4c18 333e
00000180: e8e2 063f fc4f ecbd 0e8c 37be df6d 603e
00000190: abab 673d fc5d 56be d078 a3be b4a6 aebe
000001a0: 7853 bdbe 99d0 9bbe f3e7 323f be27 cdbe
000001b0: fda8 123c 6c68 67be dda5 553e 9d45 a9bd
000001c0: 9f3e 943e b484 8bbd d140 b1be 7676 bd3e
000001d0: 4d5b db3d 12c5 723e 91c0 7e3d 1210 c93c
000001e0: 2343 0bbc b1c0 f93e 2de4 09be 3125 3e3f
000001f0: d075 653d e7ba c2be a6c7 96be 3eaa 5dbe
00000200: 621d a23e 9449 423f 9b7d c23d 1fcc 063e
00000210: 45ff 9cbe 3b2c 28bf 163b babe 450c 05be
00000220: 6a6f 30be bf58 bebe cce7 45be cdaf 093d
00000230: 7a16 d6bd fa67 e93d 1dac 643f c3a1 143f
00000240: f586 6ebd 038a 07bf fd0c c43e 5491 923d
00000250: 310f 40be fec0 2b3f d9c6 02bf 153f c3be
00000260: 5d4f 2a3f 01fb d8be d1ee 903e 949a d1be
00000270: 1431 eabd 5d05 35be 1183 9fbe 210f 983e
00000280: 74ff edbe 7486 073f 854a b33e 4c84 21bf
00000290: fd23 a63e 4d52 dabd b992 873e 7f43 04bf
000002a0: ceec 123e 27c8 b03e 3b6f e13e f03e bdbe
000002b0: 5557 8fbd 8c3e 98be a523 003e 258e 9a3e
000002c0: e9df 9b3e 1928 4ebe 549a 35bf 0b63 0b3f
000002d0: 636e febe 412a 34be 47c8 f6bc f74d 90be
000002e0: ae60 d8be 45b5 0d3d edac 64be 14e3 01bf
000002f0: 4165 58be da43 d13c f4a0 473e 2c6e 92be
00000300: e212 a33d bbff 04bf 5d5f b4be 3c64 99be
00000310: 1153 dc3d 7fb4 193e d04b 073f cc2a 94be
00000320: df57 4c3f 517d e5ba 8a29 21be 89c8 58be
00000330: 0371 9ebd 8e93 c4bd 5402 a83f ab01 5ebe
00000340: d6fe aa3e e51f 1abf 1003 7ebe 8c37 9cbe
00000350: ba93 5ebe 22c1 adbe 1c97 48be 0cd0 f8bd
00000360: c787 74be 0786 b9be 9c7e 3bbe 8417 523f
00000370: 83d7 5a3f 60d1 bfbe 4a0c 9bbe 36c0 7abd
00000380: 8a86 403d 7e2b 58be 7801 77be 0f9d 32be
00000390: 7ccb 05bf 8aad 223f 39de 20bf 3f87 8bbe
000003a0: 87b3 d1be 4692 edbe edb8 65bd 19ed 60be
000003b0: 79b2 adbe 0c5b 1bbe 0001 ccbd af8b 263f
000003c0: d7e2 8bbd 2cdd d5be c90f d63e fb09 3b3f
000003d0: 1984 1b3d 47d9 58be 1fc0 4fbd d6c3 e2bd
000003e0: 8891 98be c135 cdbd 40e2 253f bba2 8a3c
000003f0: 6f65 73bc 5e5b 2ebe d4f3 e7be 48ec 373f

fc3.bias f4 [4]
0.90811825 0.19401808 -0.006783452 -0.029206395
00000000: 707a 683f adac 463e b847 debb 4042 efbc
