checkpoint_actor.pth (torch_old, 89030 bytes, 10 tensors)

fc1.weight f4 [128, 33]
00000000: 6ae3 9e3d 2dd3 343f 1604 a43c e491 9c3f
00000010: d3a6 e5be 3c93 0fbf 0a0b e1be d2e8 f03c
00000020: 5edc 4e3d 99b2 8a3c 0a16 0d3d 5c8e 06bd
00000030: 9fb7 c03c 3c2c 46bc ecb9 48bf 45a1 883d
00000040: e5df 33bf 7ad2 673d 8615 993f ac7a 04bf
00000050: 624c 89bc 77b1 25be c562 ad3d e1de c8bd
00000060: 2436 24be 2b6c 183c 9d2d 333d a3fb ce3e
00000070: 2f6e 81bd a9c8 14bd 762f dfbe 00a3 f13b
00000080: c23f 173f 9cff 3e3e 20b7 2b3d 69fd d6bc
00000090: 37b8 6cb9 541d ea3d 48c4 bdbf 86ad 83be
000000a0: 7f5b 053d 55e3 39be 8178 133e b60f 6fbc
000000b0: 5650 e73c b679 a9bc 3daa 5bbd 997c 11be
000000c0: 8576 e73d 07c1 44bf 0b2e 0f3e f02c b6bd
000000d0: 0a70 2cbf b0a7 f8bb e26c 91bc fae6 3a3d
000000e0: aede a6bc 817a ccbd 144b cf3d 6aa6 0c3d
000000f0: 4df3 0d3f bcec cabc 5668 703d 8503 28bf
00000100: e050 aebb 026d 4cc0 ae74 db3d fc42 453e
00000110: cb45 e33d cf9c 06bf d77a 093f 7ef7 1dbf
00000120: ab9f dabe 97db df3d 79ad 5a3c f67d d83c
00000130: 7422 5abc c1c9 8dbc fcbd 043d fabd 8fbe
00000140: 9ef5 26bd 249d 923e 296f f13e 49db eb3e
00000150: 443d 2b3f 78b7 053d 2ced 68bc 8699 13bd
00000160: e3ba bebc 6811 0ebe 0cfd aebb 0532 133d
00000170: 7d3c 483e 5065 af3e 322b 05bf b8c9 49bd
00000180: 0216 e9be d619 e6bc 6788 c0bf be27 82be
00000190: b5ca fdbd d7e7 0a3f c238 afbe 29c2 a53e
000001a0: 0744 563f 995b a53e 654d 6ebe 21ac 64be
000001b0: 89d2 0c3e 7231 313d 1386 dfbc 7d7d 79bd
000001c0: 7ff8 c3bd c178 7a3e 96db 9abe 7476 a2bf
000001d0: 7b80 903e 84f2 5c3f b4b1 b63f 8467 dcbd
000001e0: 8359 d5bd 22ee bfbd 2f4a ac3d 7e62 f83d
000001f0: 8acc 26bd bda3 3b3e 1fc6 633e e75f 803e
00000200: 099e 81bd 9613 8cbe 7fc0 98bd 5d84 0ebe
00000210: e5d7 823e 2e28 d73c da2a 233e f5f9 3f3f
00000220: 994d fe3e f617 083d 4fdf 883e 171e 84bc
00000230: 37b8 94bd fd02 893c b489 453d ab36 81bd
00000240: 0694 b5bc 1d70 cdbe 5d26 ed3d 4351 e9be
00000250: bac7 62bf 8b6e 06be 6f18 7d3f f360 d7be
00000260: 3bb8 b0bd c78c cfbd ad5a 8c3d e0c6 85bd
00000270: c81a 443d daf6 0abe 347e 9c3e b5bc 8bbd
00000280: 7770 b13e a741 81bd 1685 303d 0af6 3e3d
00000290: 44e6 71be d11d 81be 5f0e bd3e bdce 4cbe
000002a0: e215 da3e ea46 cd3c 5914 413d 6517 21bf
000002b0: 4008 ba3c 4a01 0a3b 9c1b 48be a21e 60bd
000002c0: 16e1 933d f188 a8bc 7e3b b63d 4e70 3bbe
000002d0: c691 0d3d c817 4040 9191 84be cc0c 93bf
000002e0: c36b 29bf 23cf 7b3e 4a6a 743e 5d53 bebd
000002f0: 1ee4 163e 13e6 e7bd cf9b 623d c845 e23a
00000300: 62bf 5e3e 3371 6f3d 9888 593c 2db2 24be
00000310: 36dc 713d 6cb8 b8be 21ca 113e 0ed2 a03e
00000320: 0475 433e 0f63 df3e a4a3 aebd 4188 cbbc
00000330: af1c 73be 5582 5ebd a58e 183f 5194 743d
00000340: 9bf0 15be 1594 c93d 1d54 63bc 16f7 5a3e
00000350: 6490 be3d 3396 7e3d ee2a e33e 799a cc3f
00000360: 8a4a c4bf 8241 f63e 31fa b43b 3903 b53d
00000370: 27e7 7b3d ed2c f03d c909 7b3c d58e 283d
00000380: fcd6 eabe 5076 68bc c58a 9c3d ce5d 793d
00000390: 4f00 b6bd fc67 9fbd 2d1f 36bf 906e e53d
000003a0: fd9b 1d3b 12c1 8abe be79 42bf c3a1 febe
000003b0: 801a 49bf 6389 9fbf bd7e 273e 3f8d cd3c
000003c0: 6302 1dbd dec7 35bd 94a0 f1bc 7f77 e1bb
000003d0: b6a3 0bbe 2e70 5b3d cf23 063e efa2 2dbd
000003e0: 8180 023e 7e00 2e3e 2b2d 7bbf 29a6 ef3a
000003f0: b759 b93d 9055 313e 94a6 5a3c 2eec 0e3d
0.077582195 0.7063473 0.02002148 1.2232022 -0.4485384 -0.56084037 -0.43953735 0.029407892
0.050503127 0.016930865 0.034444846 -0.03285061 0.023525057 -0.012095507 -0.78408694 0.06671385
-0.7026351 0.05659721 1.1959693 -0.5174968 -0.016760055 -0.16180979 0.084661044 -0.09808136
-0.16036278 0.009303133 0.043744672 0.4042636 -0.06319844 -0.036324177 -0.43590897 0.0073741674
0.5908166 0.18652195 0.04192269 -0.026243882 -0.00022575339 0.11431375 -1.4825525 -0.25718325
0.03255796 -0.18153127 0.14401437 -0.014591148 0.02823655 -0.02068792 -0.05362915 -0.14207686
0.11301903 -0.76857036 0.13982408 -0.0889529 -0.6735846 -0.0075883493 -0.017752115 0.045630433
-0.020369854 -0.09984303 0.10121742 0.034338392 0.5544937 -0.024771087 0.058693253 -0.6563037
-0.0053196996 -3.1941533 0.10715614 0.19263834 0.11097296 -0.5258302 0.53703064 -0.6170577
-0.42699942 0.10930555 0.013347023 0.02642725 -0.013313878 -0.017308118 0.032407746 -0.28074628
-0.040761583 0.28635514 0.4715512 0.4606574 0.6689036 0.032645673 -0.014216702 -0.036035083
-0.023282474 -0.13873827 -0.005340224 0.035936374 0.19554324 0.34256983 -0.52019036 -0.04926464
-0.45524603 -0.028088491 -1.5041627 -0.25420946 -0.12392179 0.5426001 -0.3422299 0.32374695
0.8369755 0.32296446 -0.23271711 -0.22331287 0.13752188 0.043260045 -0.027285611 -0.06091069
-0.09568881 0.24460126 -0.30245656 -1.2692399 0.28223023 0.8630755 1.4272981 -0.107619315
-0.10417464 -0.09371592 0.08412587 0.12128161 -0.040722407 0.1832418 0.22243546 0.25073168
-0.06328971 -0.27358693 -0.07458591 -0.1391768 0.2555534 0.026264276 0.15934315 0.7499078
0.49668577 0.033225976 0.2673287 -0.01612763 -0.07261699 0.016725058 0.048227027 -0.06309255
-0.02216531 -0.40124598 0.11579583 -0.4556981 -0.8858601 -0.13128106 0.9886541 -0.42066154
-0.08628889 -0.10134273 0.068532325 -0.06532073 0.047877103 -0.13570729 0.30565035 -0.068231024
0.34656116 -0.0631135 0.04309567 0.04662136 -0.23622996 -0.2521806 0.36925027 -0.2000074
0.4259482 0.025058229 0.047138546 -0.6292632 0.022709012 0.0021057897 -0.19541782 -0.054716714
0.07220666 -0.020573111 0.08898066 -0.1830456 0.03456285 3.0014515 -0.25892308 -1.148828
-0.66180056 0.24590735 0.23868671 -0.09293244 0.14735457 -0.1132318 0.055324372 0.0017263228
0.21752694 0.058457565 0.013277195 -0.16083594 0.0590479 -0.36078203 0.14237262 0.3141026
0.19087607 0.43630263 -0.08527306 -0.024845244 -0.2374141 -0.054323513 0.5959266 0.059711758
-0.14642565 0.098426975 -0.013875035 0.21383318 0.09304884 0.06215496 0.4436869 1.5984641
-1.5335248 0.48096853 0.005522989 0.08838505 0.06149974 0.11727319 0.015322157 0.04115184
-0.45867145 -0.014188364 0.07643656 0.060880475 -0.088867776 -0.07783505 -0.7114132 0.11202729
0.0024049275 -0.27100426 -0.75967014 -0.4973279 -0.7855606 -1.2463802 0.1635694 0.025091765
-0.038332354 -0.04438006 -0.029495515 -0.0068807 -0.1363667 0.05357378 0.13099597 -0.042391714
0.12744333 0.16992375 -0.98115796 0.0018283773 0.09050315 0.17317796 0.013345379 0.034893207

fc1.bias f4 [128]
00000000: c6f1 8dbe 2a65 f4be bbd8 67be c504 94bd
00000010: 89b1 92bc 1586 14be 92d9 fbbd 3022 4a3e
00000020: edc1 0ebe ca40 66be 91ce 12bf 2464 bc3e
00000030: 0300 34bf 1115 1cbe 7ff9 b3be fcb2 dfbe
00000040: 6431 babd 12ce 293f 18b7 95be 43a3 bcbe
00000050: 708d 83be 245c 0c3f 5807 0bbf 81f9 09bf
00000060: 081d 80bc 640b 5a3b 93d8 683e 92be b03e
00000070: 7358 2abd 5db7 e0be 6b70 dabe 556c 543e
00000080: 8cc4 a8ba 31e3 a53e 5daa 1fbd f352 303e
00000090: 4c48 4f3e 7ee7 59bf e245 e1be e161 cbbd
000000a0: 0569 9abc 4ccd f23d 87ba cebd 81e5 a0be
000000b0: 10a0 f3bd 648e cbbe 85fa 513e 2b64 62be
000000c0: c72d 453e 6e78 94bb ef31 09bf 18e5 14bf
000000d0: d845 4fbe 721d 47bc f735 11be 96a4 4cbe
000000e0: 35bb 00bf bb3e aebe 81c9 9fbe 25bf 53be
000000f0: 2270 ebbe 2bb7 a6be f97d 03bf 2f7b 04bd
00000100: d4b1 adbe 1eaa f3bd 0b17 f9bd 2b0b b7ba
00000110: f8a4 84be 5917 39be 7f04 e1be 5445 693f
00000120: 1576 8ebe 0f9b bb3d c582 00bf 0d67 1dbc
00000130: 7e01 7c3e 37a1 b2bd 70ac 08bf 6e55 fabb
00000140: ef4e acbe b326 e0be 8bf4 0ebe 476f 5dbe
00000150: 2239 9ebc d66b f33e 0346 db3d 30f6 8f3c
00000160: a351 ddbe ade1 cbbe 1248 d8be e137 e0bd
00000170: 954c 2fbe a4df adbe f9e9 79bd 8844 cfbd
00000180: 0721 e03e 01d3 10be 3336 aebe 7d50 73be
00000190: 5209 86be b8f5 36bd 8485 9b3e 28b4 07bf
000001a0: 1726 183d 92ff 36be dd25 a8be 310f 1fbe
000001b0: d6fc a83d 5da1 a6be 3fbe adbe b026 f8bd
000001c0: fdbc 16be 3b0a a53e dc9d 12be 61cc d7be
000001d0: d475 803e 2525 a0bd b63f 1d3d 47a7 633f
000001e0: 7e4d 993e 214c 623e f04e cabe a193 1abf
000001f0: 5f76 98bd bfc3 21bf a902 673d 645d c6be
-0.2772352 -0.47733432 -0.2264127 -0.07227472 -0.017906921 -0.14504273 -0.122973576 0.19739604
-0.13941164 -0.22485653 -0.57346445 0.3679515 -0.7031252 -0.15242411 -0.35151288 -0.43691242
-0.09091452 0.66330063 -0.29241252 -0.3684331 -0.25693846 0.54828095 -0.5430808 -0.5389634
-0.015638843 0.003327095 0.22738867 0.34520394 -0.041588258 -0.43889895 -0.42663893 0.2074445
-0.0012875958 0.32399896 -0.03898083 0.17219143 0.20242423 -0.85118854 -0.4399863 -0.09930778
-0.018848905 0.118555635 -0.10094171 -0.31425098 -0.11895764 -0.39757073 0.20505722 -0.22108524
0.19255744 -0.004530958 -0.5359182 -0.5816207 -0.20241487 -0.012153016 -0.14180742 -0.1998466
-0.50285655 -0.34032235 -0.31208423 -0.20678385 -0.45983988 -0.3256162 -0.51364094 -0.03234404
-0.33924735 -0.11897682 -0.12162598 -0.001396512 -0.2590711 -0.18075313 -0.43948743 0.9112141
-0.27824464 0.091604345 -0.5019954 -0.009607089 0.24609944 -0.087221555 -0.5338812 -0.0076395785
-0.33653972 -0.43779525 -0.13960473 -0.2162448 -0.019314352 0.4754321 0.10706713 0.017573446
-0.43226346 -0.39820614 -0.42242485 -0.10948158 -0.17119057 -0.33959687 -0.06101415 -0.10120493
0.43775198 -0.14142992 -0.34025726 -0.23761173 -0.26178986 -0.04466793 0.30375302 -0.5300927
0.0371457 -0.1787093 -0.32841387 -0.15533139 0.0825135 -0.32544985 -0.3393421 -0.12116754
-0.14720531 0.32234368 -0.14318031 -0.42148116 0.25089896 -0.07819585 0.038390838 0.8892712
0.29941934 0.22099353 -0.3951335 -0.60381514 -0.074444525 -0.6318931 0.05639902 -0.38743126

fc2.weight f4 [128, 128]
00000000: 2889 61bf 05cb 67bf aceb 8f3e 645c 663d
00000010: 3b6e 153e a586 e7be 7609 2abc 7d7b b53e
00000020: fc99 583e 5726 413e 4bb9 023f 6805 2a3f
00000030: b461 a0be b22d edbe e333 2a3e 7191 3fbf
00000040: 5140 f4be ea20 be3d bf44 dbbe b079 973d
00000050: ea91 9abd 532a 0abf 5ca3 a8bd b861 9bbd
00000060: 3ba2 403e 9212 30bf f34d ecbe fe57 bbbe
00000070: 6b7a e0bc bd0d 883d 059e 28bf 58ed b83e
00000080: fe39 49bf 1e5f d3be aff8 af3e 6b5e d3bd
00000090: 1c3d 92be e721 813e 2be2 b6bd 300e 73bf
000000a0: 9593 053d b2ad b2be c339 77be e727 dbbe
000000b0: 6e32 6abf 9bd4 e2be 8a98 713e 4430 a039
000000c0: eee1 a6be 410a 87be deb0 66be eea5 833e
000000d0: 3bb1 62be 8f42 d4be 0044 d7be c92b 65be
000000e0: b4da 3ebe 202a c3be 819b c1bd 11a9 81be
000000f0: f10c 07bc d3cd 13bf b4bf dfbe aa0b 70be
00000100: e074 493e c1a3 9bbf 15e7 93be f11e 313f
00000110: 6e26 67be 9a77 ce3d dca0 0f3f ea2b e33d
00000120: f348 4b3e 127f a63d c4be 02bf 5618 27be
00000130: b435 623f 6e49 533d 7366 7ebe 1bcc 773e
00000140: 1083 a63e cc7a 23bf e463 003e 6be8 45bf
00000150: a54e e03d ed02 eb3d 435f fe3d a1da c23d
00000160: 291f 873e 43f9 063f c375 763b 6137 99be
00000170: d3d7 f73d 9d04 4b3e 0d09 9f3e 76d1 273e
00000180: 1849 91bd d80c 173f 8071 ecbe 87df abbe
00000190: 0700 46bf c3aa 0abf 8dc1 39bf f1e5 e3be
000001a0: cd46 80bd 4aea 74bf 40a9 d2be 614c 8dbe
000001b0: 61dd 2e3e cfc3 843e ad18 0a3e de69 81bf
000001c0: f5ae 9fbe 4f10 133e fce2 523c 388b cf3d
000001d0: f9a9 24bf 13d7 843e 723e 2abf 0100 0cbf
000001e0: 13cf a9be b470 91bd e81d e5be fed0 00be
000001f0: 4f65 823d 64e5 32be 3eb1 353e 5e4c 67be
00000200: b59c 36be 3b17 c93e f3b6 cabd 36b5 66bd
00000210: fbbf 5e3e fad3 5cbe d738 61bf 5597 973e
00000220: e264 bcbf a88f 223e efcd e43e f6d0 a9be
00000230: ea49 d23e 09f5 b33d 098f 7dbd 3323 9bbe
00000240: 735e 5f3e b8a6 80bd 8a55 8fbd 4c6b d23e
00000250: 83a6 3a3e 3583 cebe 6ae2 82bf 629c 9abe
00000260: fe7d af3e b4ba 29bf 8343 a33e 6fa3 edbe
00000270: 0124 e63d c357 13bf bae4 05be 597f 64be
00000280: 3601 50bf ee8a 42bd 4e2c 44be 7519 ddbe
00000290: 3801 99be c905 babe 6679 673e 6728 0f3d
000002a0: 6bb0 99be ae7a f33c f050 36be ba98 223f
000002b0: 7b81 473e ba0d 0ebf ca7b c0bd 2a29 2b3e
000002c0: e19e dd3e ee22 ac3d 4378 403e 4810 33bd
000002d0: 580f f73d 21bc 873e 1f4b eabd 376f ce3c
000002e0: 9406 01bf 0e70 fc3d 7c9b e53c 950d 33bf
000002f0: 1b78 513d 9d15 023f f7cb dabe 48fc 9abe
00000300: fdb3 b13d 4f06 b2bd 554f f3be 26f8 92bc
00000310: 1478 0fbe a518 813b e20e 0a3e 2a29 33be
00000320: 4a95 32bf 460b e3be 59e2 003f a423 39be
00000330: e787 98be 50de b0be f137 1d3f b258 59bf
00000340: 184a 3e3d dc74 5dbe 2ba6 e7bd 39c1 10be
00000350: 163a 4dbe 32b3 99be b782 823b b0d4 153f
00000360: f527 3dbe e289 e5bd 4896 e83e 9fb7 e63d
00000370: d0c0 b8be 6ae9 343e 792f 0f3f 3da6 1b3d
00000380: c5e0 cf3e c2e6 8cbe 89fa 41be 5e92 293f
00000390: 5877 0fbf 0f83 8a3d 2647 03bf 92eb b13e
000003a0: b6c8 f7be 7614 6d3e 69d1 ec3d 551b 043c
000003b0: 01bf 24bd 0f2e c03e b17d 19bf f4a7 613e
000003c0: b7a4 cb3e 61bc 0abf b67c c4bd 5235 c43d
000003d0: 3cb0 53bd fffa a4bd 6cc7 14bf d93c 8abe
000003e0: 42e2 0abf 1d73 a4bf cccc 22bf c893 efbe
000003f0: 87c8 753f ff7f 8fbe 674c c33e af9a c3bd
-0.8809991 -0.9054416 0.2810949 0.056240454 0.14592831 -0.45219913 -0.010378232 0.35445777
0.2115249 0.18862282 0.51063985 0.664145 -0.31324542 -0.46323925 0.16621356 -0.748313
-0.4770532 0.092836216 -0.42825887 0.07396257 -0.07547362 -0.5397083 -0.08234283 -0.07586998
0.18811886 -0.68778336 -0.4615322 -0.3659057 -0.027402123 0.06643245 -0.6586612 0.3611858
-0.78604114 -0.41283506 0.34369418 -0.10320743 -0.28562248 0.25221178 -0.08929857 -0.94943523
0.03261145 -0.34898144 -0.24143128 -0.4280388 -0.914832 -0.4430283 0.23593345 0.0003055354
-0.32594246 -0.2637501 -0.22528407 0.25712532 -0.2213792 -0.4145703 -0.42044067 -0.22379984
-0.18638116 -0.38118076 -0.09453488 -0.253243 -0.008242832 -0.5773594 -0.43700945 -0.2344195
0.1967349 -1.2159349 -0.2888724 0.6918784 -0.22573254 0.10081406 0.56104827 0.1109236
0.19852047 0.081297055 -0.51072335 -0.16317877 0.88363194 0.0515837 -0.24843769 0.24198954
0.32521868 -0.6385925 0.12538105 -0.77307767 0.109525 0.114751674 0.124205135 0.095143564
0.2639096 0.52724093 0.0037606813 -0.29925063 0.12101712 0.19825979 0.31061593 0.16388497
-0.0709402 0.59003973 -0.46180344 -0.33568975 -0.7734379 -0.5416681 -0.7256096 -0.4451137
-0.06263504 -0.95669997 -0.41144753 -0.27597335 0.17076637 0.2593064 0.13485976 -1.0110433
-0.3118817 0.1436169 0.0128715 0.10133976 -0.6432186 0.2594534 -0.66501534 -0.54687506
-0.33165798 -0.071015745 -0.4474938 -0.12579724 0.06366979 -0.17470318 0.17743394 -0.22587726
-0.17833216 0.39275536 -0.09898176 -0.05632516 0.21752922 -0.21565238 -0.87977356 0.29607645
-1.4718287 0.15875113 0.44688365 -0.33167237 0.41072017 0.08786971 -0.061903987 -0.30300292
0.21813373 -0.06281799 -0.06998737 0.41097486 0.18227582 -0.40334478 -1.0225346 -0.30197436
0.34275812 -0.6630051 0.31887445 -0.46413752 0.11237336 -0.5755579 -0.13075534 -0.22314204
-0.8125185 -0.047495775 -0.19157526 -0.43183485 -0.29883742 -0.3633254 0.22604904 0.03495064
-0.3001741 0.029721584 -0.17804313 0.6351429 0.19482987 -0.55489695 -0.09398611 0.16714922
0.43285277 0.084051 0.18795876 -0.0437167 0.120634735 0.26510718 -0.114401095 0.025199516
-0.5040066 0.1232606 0.028028242 -0.699426 0.051139932 0.5081423 -0.42733738 -0.302706
0.08676908 -0.086926095 -0.47521463 -0.017940592 -0.1401065 0.0039397054 0.1348224 -0.17496172
-0.6975905 -0.44344538 0.5034538 -0.18080002 -0.29791185 -0.3454461 0.61413485 -0.84900963
0.04645738 -0.2162661 -0.11310991 -0.14136209 -0.2004169 -0.30019528 0.0039828676 0.5852766
-0.18472274 -0.1120794 0.45427155 0.11265492 -0.36084604 0.17667165 0.5593181 0.038000334
0.40601173 -0.27519804 -0.18943228 0.66238964 -0.5604148 0.06763279 -0.5128044 0.34750038
-0.48395318 0.23152336 0.11563379 0.008063157 -0.040221218 0.3753514 -0.59957415 0.22036725
0.39774105 -0.54193693 -0.09594099 0.095804825 -0.051681742 -0.08055686 -0.58116794 -0.26999548
-0.5425149 -1.284763 -0.63593745 -0.46792436 0.96009105 -0.2802734 0.38144228 -0.09550988

fc2.bias f4 [128]
00000000: d236 9dbe 874e aabe 725d 693e 1353 20bf
00000010: dc05 0fbf 91c9 04bf 961b ccbe 5dff 39bf
00000020: 3a9c dcbe 5412 dfbe fe30 793e 007f 8dbe
00000030: 2412 8ebe 4b40 fdbe 9198 813c 5908 d13d
00000040: e26a 11bf 764f 91be 45a9 81be 0d0a 56bf
00000050: 6b1a 0fbf b836 673d 7c54 bcbd 8ad2 2bbf
00000060: 67d1 573e f68a 4cbd f2a4 62bd 94fb 05bd
00000070: 2489 cf3d ec3c 83bd 7bf9 a93d a3a5 1e3e
00000080: 5923 153e f536 66bd 88e4 a3bd d98b 8bbe
00000090: 94ab 7bbe 8927 f43d 70c4 2fbf 07ee b7bd
000000a0: 7f09 4bbf 70d2 83bf 8cd7 b7bd f719 8ebe
000000b0: cef5 66bf 8c35 c53d a612 793d 818c 2fbe
000000c0: 5c54 013d d262 4abe c7fd 47be 886f 41bf
000000d0: 9885 bcbe c589 32bf 3a45 58bf d75d 73bf
000000e0: 6903 c0be e3a1 83bf 58f4 fabe fde1 5bbe
000000f0: 366e 153e f84c 90bf 3d86 823d 9c6c 31bf
00000100: d0b3 2bbe 6fe9 83be 9097 09be cf1b 2fbd
00000110: eefc 2cbf 79c2 2dbf 5183 7ebe 2a47 d0bd
00000120: 4e69 b03e c764 42bd e3d6 453d e66a a03d
00000130: a2e5 11bf 2354 8bbe 16da 29bf abea 1cbe
00000140: 1d43 52bf 4f56 58be 5d97 e8bf 137c 90be
00000150: f636 66be 6550 59be 7698 a73d 2273 41bf
00000160: 0223 cc3c 8b44 66be 055d c0be 01b3 2ebd
00000170: 2932 48bf fbf1 333e c66f bbbe b922 35bf
00000180: ab4c 62bf 84ce 67bf ceef 68be 7864 57bf
00000190: ca23 21bf 19f5 35be e75d 1ebe d38b e5be
000001a0: f6ba 5fbd a605 653e 1df5 edbe 35f4 7bbe
000001b0: ec47 b93c d4b8 e9be 6187 65bf 0bb9 97be
000001c0: 92a8 2dbf e3f4 ffbe f926 3dbe 1c8b 9a3c
000001d0: 5259 22bd 1ca4 a9be e2cc dbbd 4364 563e
000001e0: 96ad 4cbe fc07 15bf e1c4 2dbf 2590 4e3e
000001f0: c918 0abe 9498 3dbf 3bc6 7abe f661 21be
-0.30705887 -0.33263037 0.22789553 -0.6262676 -0.55868316 -0.51870066 -0.39864796 -0.7265528
-0.4308794 -0.4356867 0.24335095 -0.27635956 -0.27748215 -0.49463114 0.01581982 0.1020667
-0.56803715 -0.28380936 -0.25324455 -0.83609086 -0.55899686 0.05644867 -0.091958016 -0.6711813
0.21075974 -0.04993721 -0.055333085 -0.032710627 0.101335794 -0.06408104 0.08299538 0.15492873
0.14564265 -0.056204755 -0.08002573 -0.27255133 -0.2457717 0.11921603 -0.68659115 -0.08980947
-0.79311365 -1.0298595 -0.08976659 -0.27754185 -0.9021882 0.09629354 0.0608088 -0.17143442
0.031574592 -0.1976426 -0.19530402 -0.7556081 -0.36820674 -0.6974147 -0.8448063 -0.95065063
-0.37502602 -1.0283779 -0.49014544 -0.21472926 0.14592823 -1.1273489 0.0637326 -0.6930635
-0.16767812 -0.25764033 -0.13436723 -0.04275113 -0.6757344 -0.67874867 -0.2485478 -0.101698235
0.3445534 -0.04745939 0.048300635 0.07832889 -0.56991017 -0.2721263 -0.663484 -0.15323894
-0.82133657 -0.21126674 -1.8171192 -0.2821966 -0.22481903 -0.21222074 0.081833765 -0.75566304
0.024919037 -0.22487085 -0.37570968 -0.04265118 -0.7820154 0.17572777 -0.36608714 -0.7075611
-0.88398236 -0.9054949 -0.22747728 -0.8413768 -0.62945235 -0.17769279 -0.15465508 -0.4483324
-0.05462166 0.22365436 -0.4647607 -0.24604876 0.022617303 -0.45648825 -0.89659697 -0.29633364
-0.6783534 -0.4999152 -0.18471898 0.01886516 -0.039635964 -0.33133018 -0.10732438 0.20936684
-0.19988093 -0.5821531 -0.6787854 0.20172174 -0.13486017 -0.7406094 -0.24489681 -0.15760025

fc3.weight f4 [4, 128]
00000000: 2d4f e93f ac4e ec3e 312c 983f 175c 65be
00000010: 3690 cbbf 411e b13f 412b 08bf 0854 24bf
00000020: d16c 98be 2595 03c0 40cd 5cbf ad75 9bbf
00000030: 1851 03bf f27c 853f 47eb c23f 28ee f6bf
00000040: dcc1 1e3f a3a9 cbbf 7be0 ddbf 51bf 3dbf
00000050: aeee 95bf b152 c2bf 6b79 c2bf 6813 633e
00000060: 99a5 9a3f e86c e2bf 9275 8e3f 19f5 ac3f
00000070: 5e61 e23f ee98 0bc0 0bcd ffbf 7c4f 0e3f
00000080: 7c64 fb3d 0b06 1bbf 50b1 a8bf 08e2 fb3f
00000090: 01ce b4bf 9b3d 9f3f 1681 ce3f 058c e23f
000000a0: 167a eb3e 67ab 35bf 54da 82be 698b abbf
000000b0: 390d f53e d3e1 2abf b49c 84be 993d 813e
000000c0: f9a9 54bf 3915 d53f d736 debf 873b b73d
000000d0: 9a35 543f 1bd0 91be 7a45 a93d ea6c 0f3e
000000e0: c493 a03f 1fad c53e ab79 27be 2aea 3c3f
000000f0: a5cf ebbd d565 983e d5de c43f 4b94 773f
00000100: f7d2 863f 0b4c b3bf ac86 d73f eb8f 8dbf
00000110: 8eaf 32bf 34e8 b13e d9d3 da3f a619 43be
00000120: 8e17 753e a0e0 72be 3a79 183f fb21 86bf
00000130: 2109 f3bd d3a4 42be 6dfc fdbf 44fb 103f
00000140: 5af9 953f 943d 883f e14b 11bf 5d6b 7dbf
00000150: cbe2 48c0 53e7 bdbf ecc1 bdbc 0e13 b33f
00000160: cf59 9f3f 3c45 78bf 39a2 87bc a7ec 69bf
00000170: a394 6a3f 1579 fbbd da7d d2bf 7f90 a33f
00000180: 4f5d a5bf 50e6 16bf e58c 723f adb2 e0bf
00000190: 13a6 09bf 8efb 6d3f bfe3 853f f704 23be
000001a0: eb21 d4be 9d89 2e3e e04d 683f 5c93 9c3c
000001b0: ed90 ba3f 7f27 4a3d ede6 bebe c3be 8ebd
000001c0: 171a 1cbe 8ff2 a93e 9831 aebf 8c0b b53f
000001d0: 16d9 05be 44f1 be3f 7384 9c3e 21c6 983f
000001e0: 7b83 b33e 46e2 adbf 0a39 c5bf 7de2 f33e
000001f0: 6401 80bf ca83 05be 7ae7 0540 300c 2bbf
00000200: f74e cb3e b13e 03bf 3fb3 193e d266 70be
00000210: f383 3bbe e60f cd3d 071b 1a3d ae93 853e
00000220: 9792 51be 3879 123e a8e9 bcbe b8dd 0ebf
00000230: 2b96 b7be 9493 7c3e b999 28be 1bde 19bf
00000240: 090b 113e fe8b 57bb 5736 e53e 9ae5 d93f
00000250: f8b1 c0bf 87b7 9ebe e755 6b3f 4e5b e33e
00000260: 9c5c e2be 28ee 69bf 5794 92bf 09d6 fdbd
00000270: e604 333f be19 aa3e 542a ca3e ac64 a93e
00000280: acf8 86bf acc6 b83f b2a2 b0be bb6e 8e3e
00000290: b0ab 2dbc ce70 bfbe d8c5 3e3f 71a0 10bf
000002a0: 0af7 f73d e7b1 703e 5249 8fbf 9976 4b3d
000002b0: 35b9 dcbe 558a 283f cd19 b33e 2407 88bf
000002c0: 0c5c 4b3f 355f c3be 4c8e 7f3f 5f05 a8be
000002d0: 8eb0 043f 46ad 843e 7771 5d3f aeec 2fbf
000002e0: 0801 5c3f 0e24 463f 0177 6f3f 8313 af3f
000002f0: 9730 26c0 961f 803e e222 e7be 3fdc 6c3d
00000300: f1c2 57bd 160e e03e 992c e23e 1822 6e3e
00000310: 5a11 03bd 614d 20bf 55c0 293e cfa6 3a3f
00000320: 4167 f73d e5cf 223e 3406 653f 0815 713e
00000330: 8d8f 25bf 053b 713f ffa9 3a3f 6416 a43f
00000340: e136 50be a5dd 5ebf 37cd 68bd 437e 6cbf
00000350: b7c8 a33e 78c4 723d 4b48 5f3f 2baa 7d3f
00000360: 6e0c fcbe 3281 f5be 4f1a 493f 311e 0f3e
00000370: 9345 56be b86a 913f 9229 f6bd 487e d9be
00000380: 6346 5cbf f12a c23f 4f51 6dbf 64c4 90be
00000390: 9979 b0bd 0220 123f 8532 1ebe 0e91 4e3f
000003a0: 0807 63bf f199 923f 1577 10bf e7c2 6bbf
000003b0: 95bb c0bc 4e95 dc3f cbd6 4d3f a0f2 62bf
000003c0: 6f13 c9bc e4db 4e3f 8aca 3d3f 22b3 27be
000003d0: 6c06 703f 3739 833e 48ca 113e 42bf 16be
000003e0: bff9 d9bf c173 d03f 5808 e1bd 560a 55be
000003f0: db53 b93e 0626 f13e d7c6 15bf 47f7 8f3f
1.8227288 0.46153772 1.1888486 -0.2239841 -1.5903385 1.3837358 -0.53191 -0.6419072
-0.2977052 -2.055978 -0.86250687 -1.2145287 -0.51295614 1.0428755 1.5228051 -1.929143
0.62014556 -1.5911144 -1.7334131 -0.7412005 -1.1713464 -1.5181485 -1.5193304 0.22175372
1.2081786 -1.7689486 1.112963 1.3512298 1.7685964 -2.181209 -1.9984449 0.55590034
0.12275025 -0.60556096 -1.3179111 1.9678354 -1.4125367 1.2440675 1.6133144 1.769898
0.45991582 -0.70964664 -0.25557196 -1.340192 0.4786165 -0.6675083 -0.25900805 0.25242308
-0.8307186 1.6647102 -1.7360486 0.08946901 0.8289429 -0.28479084 0.08265205 0.14006391
1.2545094 0.38608643 -0.16355006 0.73794806 -0.115142144 0.29765192 1.5380503 0.9671065
1.0533131 -1.4007581 1.6837974 -1.1059545 -0.69799125 0.3474747 1.7095901 -0.19052753
0.23934767 -0.237185 0.5955998 -1.047912 -0.118669756 -0.19008188 -1.9842659 0.566334
1.1716721 1.0643792 -0.5675641 -0.9899195 -3.1388423 -1.483622 -0.023163758 1.399019
1.2449282 -0.96980643 -0.016556846 -0.9137673 0.9163305 -0.12278954 -1.6444657 1.2778472
-1.29191 -0.5894518 0.9474624 -1.7554528 -0.53769034 0.92961967 1.0460128 -0.15919863
-0.41432127 0.17044683 0.9074383 0.019113235 1.4575478 0.049354073 -0.37285557 -0.06969979
-0.15244327 0.3319287 -1.3608885 1.4144149 -0.13071093 1.4917378 0.305698 1.1935464
0.3506125 -1.3584678 -1.5408032 0.47633734 -1.0000424 -0.13038555 2.0922532 -0.6681547
0.39708683 -0.51267534 0.15009783 -0.23476723 -0.18312053 0.10012798 0.03762343 0.26089233
-0.20466076 0.14304054 -0.36897016 -0.55807066 -0.35856757 0.24665672 -0.1646489 -0.6010453
0.14164366 -0.0032889838 0.4476802 1.7023194 -1.5054312 -0.30999395 0.9192795 0.44405597
-0.4421128 -0.9137902 -1.145152 -0.123943396 0.6992935 0.33222765 0.3948542 0.3308462
-1.0544639 1.443563 -0.34499127 0.27818856 -0.0106000155 -0.3739075 0.74520636 -0.56494814
0.12107666 0.23505364 -1.119425 0.04967365 -0.43110052 0.6583608 0.34980622 -1.0627179
0.7943733 -0.38158575 0.998265 -0.32816598 0.518319 0.25913447 0.8650126 -0.6872052
0.85939074 0.77398765 0.9354096 1.367783 -2.5967157 0.25024098 -0.451438 0.05782723
-0.052676145 0.43760747 0.4417465 0.23255193 -0.03199897 -0.6261807 0.16577275 0.7291078
0.12080241 0.15899618 0.8946259 0.23543179 -0.64672166 0.9423068 0.72915643 1.2819333
-0.20333435 -0.8705695 -0.056836333 -0.9238016 0.3198907 0.0592694 0.87219685 0.9908778
-0.49228233 -0.4795013 0.7855577 0.13976361 -0.20924978 1.1360693 -0.12019648 -0.42479157
-0.860449 1.5169355 -0.9270219 -0.28274834 -0.08616943 0.5708009 -0.15448959 0.80690086
-0.88682604 1.1453229 -0.56431705 -0.9209427 -0.023526946 1.7233064 0.80405873 -0.88651466
-0.0245454 0.80804276 0.74137175 -0.16376927 0.937598 0.2562959 0.1423732 -0.14721397
-1.7029341 1.6285325 -0.109879196 -0.20804724 0.3619679 0.47099322 -0.5850653 1.1247338

fc3.bias f4 [4]
00000000: 8e89 f03d adb0 d6be dc42 3fbf ea80 333e
0.117449865 -0.41931668 -0.74711394 0.17529646

bn1.weight f4 [128]
00000000: 088d 7f3f cb2f 833f 8230 ca3f 55d0 903f
00000010: af49 8f3f 3c16 283f 1aa9 673f 662b 603f
00000020: 4585 fc3e 8540 103f d8bd e53e 8d63 5b3f
00000030: 00c8 853f 06ef 843f 3e68 6d3f be15 773f
00000040: 8cdd 4f3f c749 933f c241 973f 4a0b 443f
00000050: 378a 633f 6f40 543f 29c2 413f 1333 143f
00000060: 9761 f73e e299 423f d645 3e3f 5087 6d3f
00000070: 516d 8d3f be78 053f 9daa 1e3f 7dee 293f
00000080: 0817 953f 03bb 073f fe76 063f 465b 9d3f
00000090: 6758 5e3f c110 5e3f 0e42 dd3e 2027 423f
000000a0: 8329 243f 865f 4d3f 86d3 4e3f 89a2 c23f
000000b0: 9304 b83f 3d59 533f c46f 4d3f 139d ccbe
000000c0: 9cce 023f 8263 413f 4b24 723f 194f 563f
000000d0: 365f 2d3f 232e 373f 9ae7 1d3f 3582 583f
000000e0: 24cf 603f 63a5 563f 9e68 333f 2fd9 5b3f
000000f0: 4bfa 773f aced 113f 33e9 313f 5cad 973f
00000100: 90a1 f63e 93c9 833f 54b8 813f e316 9a3f
00000110: dc8b 673f 9062 d43e 81a9 fa3e 9407 393f
00000120: 9f9d 2c3f d2a8 853f 7869 913f ebc9 5a3f
00000130: 4a9a 553f afad 173f a75d 4a3f 4ab8 863f
00000140: fc3d 663f caa9 133f fb4c 6f3f f4d7 4c3f
00000150: 3c4c 973f 7af7 133f 8268 583f 70d5 2c3f
00000160: 2a5c 4f3f f143 6a3f 7ac7 1b3f cd1a 6c3f
00000170: 394b 833f a333 723f 6235 353e 416f 653f
00000180: 7bae 4f3f c8d6 463f d227 7f3f 70f4 913f
00000190: 5e85 8f3f 5401 863f 9c90 b03f aa37 763f
000001a0: be4a 453f e874 8a3f 7705 6d3f 661f 723f
000001b0: d1af 9b3f 4cbc 3f3f 294a 563f c745 3b3f
000001c0: fbf4 533f 6354 543f 6591 7f3f ebcc 213f
000001d0: 98d0 793f c7b2 3b3f 5fe5 5f3f 5603 413f
000001e0: 8f55 a83f 98e7 113f 0f51 553f dcfe 803f
000001f0: ec6f 6b3f 3e4c 713f 73dd 573f b290 3f3f
0.9982457 1.024896 1.5796053 1.1313578 1.1194361 0.65658927 0.90492404 0.8756622
0.49320427 0.5634845 0.44871402 0.8569878 1.045166 1.0385444 0.92737186 0.9651755
0.8119743 1.150689 1.1816943 0.76579726 0.88882774 0.8291082 0.7568689 0.57890433
0.48316643 0.76016057 0.7432531 0.92784595 1.1048986 0.5213736 0.61979085 0.6637953
1.1647654 0.5301973 0.5252532 1.229348 0.8685364 0.86744314 0.43214458 0.7584095
0.6412584 0.8022388 0.8079151 1.5205852 1.4376396 0.8255804 0.80248666 -0.39963588
0.5109651 0.7554246 0.9458663 0.83714443 0.67723405 0.71554774 0.6168152 0.8457368
0.8781607 0.8384611 0.7008151 0.8587827 0.9686629 0.57003284 0.6949646 1.184978
0.48170137 1.029589 1.0134377 1.2038234 0.90447783 0.41481447 0.48957446 0.7227719
0.6742801 1.0442145 1.1360312 0.8546435 0.8343855 0.59249395 0.7904915 1.052499
0.8993833 0.5768095 0.9347684 0.8001702 1.182014 0.57799494 0.84534466 0.6751318
0.81000006 0.9150992 0.6085125 0.92228395 1.0257331 0.9461004 0.17696145 0.89622885
0.8112561 0.7767148 0.99670136 1.1402721 1.1212575 1.0469155 1.3794131 0.96178687
0.7706717 1.0816927 0.92586464 0.9457916 1.216303 0.74896693 0.8370691 0.73153347
0.82795686 0.82941264 0.9983123 0.63203305 0.97583914 0.7331967 0.8745937 0.75395715
1.315111 0.5699401 0.8332681 1.0077777 0.91967654 0.9425696 0.8432228 0.7483016

bn1.bias f4 [128]
00000000: 2395 b83e 3a35 f23e f276 29bd 2df8 143f
00000010: 7a3a b63e 6904 a63f 9e6f 0c3e b5c5 d7bd
00000020: 0a87 733e b9ce 7ebc 499e 1cbd 25e6 62be
00000030: d76c d53d 483b bc3e 6f59 ac3e c702 803e
00000040: 723c 48bd 637f 0e3e d8f5 df3c 61e0 903d
00000050: d997 28bd 9b0b 953f bf57 b3be cd0e bc3f
00000060: b3ab bfbe 7442 0f3e 0b4d 76be 1211 383e
00000070: e267 053e cd2f 4c3e 35e9 b2bd 1c48 753c
00000080: ffbb ef3d a990 613e 73ca 333f ebb6 193f
00000090: 4419 293f a722 8cbd aab2 36bf 6f86 0539
000000a0: c729 a1bc 0131 edbc d41c 17be 1f4c 9f3e
000000b0: 785f bd3e 6742 af3e 8bd2 423d 973d f3bf
000000c0: aa8d 333e 9a90 203f efe3 a03d b597 593e
000000d0: 7a37 85bf d18f 913d a83c 72bd 0798 60bf
000000e0: 8fdb 453e 5e94 5d3e 869b b43e 1fc6 213f
000000f0: 30db 1b3e ceef 14be 1734 08bf 9bb5 2e3e
00000100: 1000 203d 200a b9bd 7b88 88be 0403 1abe
00000110: 8fec 623e 90ae 2b3e 33a9 6dbf 16c2 0abf
00000120: eec4 433e dafc b9bd d6ce 713f 604a cfbd
00000130: 9012 c4be 30ad c93d 64be c53d ec1e 5f3e
00000140: 66b2 043e 560a a83e e9e8 f33e ba9c d43e
00000150: 78b5 1c3f cb10 553d 8cbc 5bbe c61a 00bd
00000160: 85e7 833d e54b a33d c945 14be 3ca9 363b
00000170: 3fa7 113f 395d 033f 03b0 90bf 86fb 2e3e
00000180: 53b8 ff3d 18a7 4e3e 3f2b 463f 28e9 b53e
00000190: bd6b b43e 775d e53e 0ee0 723e 0fc7 803e
000001a0: 2a6a f7bc 6b04 3a3e 1be7 5f3d 5044 ff3e
000001b0: 98aa a7bd be9b cdbe ed5d 0fbd 305c fb3e
000001c0: dabf e6bd 6208 8f3d ecb1 033d e221 83bc
000001d0: 7496 433f 1b1a 6b3e 1e64 573d 2838 2e3f
000001e0: 14a7 16be 250a a73d 6753 893f ed36 abbd
000001f0: a1ef 203e 1bff 2c3e 91bd 6e3b 9759 213e
0.36051282 0.47306234 -0.0413732 0.58191186 0.3559149 1.2970096 0.13714454 -0.105357565
0.23781982 -0.015552216 -0.03823689 -0.22158106 0.1042115 0.36763978 0.33661982 0.2500212
-0.04888577 0.13915782 0.027338907 0.07074047 -0.04116044 1.1644167 -0.35027882 1.4692017
-0.37435684 0.13990194 -0.24052827 0.17975262 0.1302791 0.1994011 -0.08735887 0.0149708055
0.11705779 0.2202784 0.7023079 0.60044736 0.6605418 -0.06842547 -0.7136637 0.00012733949
-0.019673241 -0.028954031 -0.14757091 0.31112763 0.369869 0.34230348 0.04756407 -1.9003171
0.1753451 0.62720644 0.07855975 0.21249278 -1.0407555 0.07107509 -0.059139878 -0.87731975
0.19322036 0.21638629 0.35274905 0.63192934 0.15220332 -0.14544603 -0.5320448 0.17061464
0.03906256 -0.09035134 -0.26666626 -0.15040213 0.22160552 0.16765809 -0.928363 -0.542024
0.19118091 -0.09081431 0.9445623 -0.10121608 -0.38295412 0.09847486 0.09655455 0.2178914
0.12958679 0.32820386 0.47638634 0.41525823 0.612144 0.05201797 -0.21458644 -0.031275533
0.06440643 0.0797346 -0.14479746 0.0027871868 0.5689582 0.5131412 -1.1303715 0.17088136
0.12486329 0.20180929 0.7740974 0.35529447 0.35238448 0.4479787 0.23718283 0.2515187
-0.03020199 0.18165748 0.05466376 0.49856806 -0.08186835 -0.40157884 -0.035001684 0.4909377
-0.112670615 0.06984021 0.0321521 -0.016007368 0.7640145 0.22959177 0.052585714 0.6805444
-0.14712173 0.08156232 1.0728577 -0.08360086 0.15716411 0.1689419 0.0036428908 0.15756832

bn1.running_mean f4 [128]
00000000: d71a e63e 8b28 293e b04d 133e 30b6 933e
00000010: 6d03 d23e c3b2 c13d 5646 b83e f54e a33e
00000020: f4ce 0f3f 4e39 fc3d 755e f13e 138c 763f
00000030: a117 4f3e e837 ac3e 32f1 a33e a7a1 ac3e
00000040: 1698 4c3f 5fd4 5d40 6bd0 853e ff99 883f
00000050: a469 413f c35f a83f 0536 ff3e 266f b43e
00000060: 5dc4 7240 250e 1c3e a791 c83e acce 0940
00000070: a547 023f 93b3 ea3e 5678 153f 399a 753f
00000080: fd6c 573e fa36 0140 04f0 253e fb01 f63f
00000090: 8271 3d3f ec4a e23e 64c2 933f b401 083f
000000a0: 6b34 503f d6a6 4d3f 101d 913e a359 bf3e
000000b0: 6a0d 113f 42cf 3e3f 0560 293f 54de 443f
000000c0: 8274 1e40 9f5c 2a3f 9347 103f e9b9 2f3e
000000d0: b25c 0440 0592 823e deec 6f3f 5c09 1f3f
000000e0: 2ac9 9e3d 7291 cc3e 4ed6 ab3e b119 403d
000000f0: 0ec1 fa3d 2f59 ac3e dd0a 313f 5156 dd3f
00000100: 5ee1 303d 067a 173e 0b85 633f 8b74 7e3e
00000110: e4fb 443f 045f 383f a9a1 da3e 0f6c 3340
00000120: 7080 b73e bac0 1c3e 1de6 a93d e4f6 a83f
00000130: f403 733f 32d7 7f3e a95e aa3e 34c3 2f40
00000140: ffbb 1c3f 5590 893f 8f37 ca3f b685 093e
00000150: 7651 5e3f 44bc 973f d7fa 2c3f c59e a33f
00000160: 8725 163e 1615 2b3e 8faa 013f 3268 e33e
00000170: 2046 a03e f9a7 9d3e 9fa3 103e 8b97 8e3e
00000180: c4c7 083f f689 ba3e 761d cc3d 3dcc 813f
00000190: bcde 113f 5234 033e 9a42 1a3f 6940 ed3e
000001a0: a9c4 223e a5b7 4f3f 6b0f 0f3e 0e42 1d3e
000001b0: fdbc 1840 6392 de3e 10c8 a53f 70c2 f93e
000001c0: 63ca f43e 961d 0b3f 581d e53d b7e1 7a3e
000001d0: 3d0f bc3f b69c 043f 04e8 fd3e c5ef 4540
000001e0: 0d23 0a3f 0026 dc3e edb2 1e3f 9001 963e
000001f0: 14d1 323f ddce 033e c3a6 f23e bbd2 d53d
0.44942352 0.16519372 0.14385104 0.28849936 0.4101824 0.09457924 0.35991162 0.31896177
0.5617516 0.123156175 0.47142377 0.96307486 0.20223857 0.33636403 0.32019955 0.3371708
0.79919565 3.466087 0.26135573 1.0671996 0.7555182 1.3154224 0.498459 0.3524105
3.793235 0.1523977 0.39173624 2.1532393 0.5089057 0.4584013 0.58386743 0.9593845
0.2103767 2.0189805 0.1620484 1.9219354 0.74001324 0.44197786 1.1543698 0.531276
0.81329983 0.80332696 0.28342485 0.37373075 0.56661093 0.74535 0.6616214 0.76901746
2.475861 0.6654758 0.56359214 0.17160763 2.0681577 0.2550203 0.93720806 0.62123656
0.07753213 0.39954716 0.3356194 0.0468995 0.122438535 0.33661792 0.691572 1.7291967
0.043183677 0.14792642 0.8887488 0.24849145 0.76946855 0.7201998 0.42701462 2.8034704
0.35840178 0.15307894 0.08295844 1.3200345 0.94927907 0.24984434 0.33275345 2.7462893
0.6122436 1.0747172 1.5798205 0.13429913 0.8684305 1.1854329 0.6757025 1.2782828
0.14662753 0.16707262 0.50650877 0.44415432 0.313035 0.30792215 0.14124916 0.27849993
0.5342982 0.3643338 0.09966557 1.0140454 0.5698049 0.12812927 0.60257876 0.46338204
0.15895332 0.81139594 0.13970725 0.15357229 2.386535 0.4347106 1.2951679 0.48781157
0.4781066 0.5434202 0.111872375 0.24500166 1.469215 0.5180162 0.49591076 3.0927594
0.53959733 0.42997742 0.6199177 0.29298067 0.6985028 0.12871881 0.47392854 0.10440584

bn1.running_var f4 [128]
00000000: 119e e33e 0ae7 4c3e f924 093e 66c8 733e
00000010: f655 a93e 4970 e13d 8468 ad3e 55a2 d93e
00000020: 0592 963f e16c 3e3e 6cf6 773f 6c3d 4f3f
00000030: 63cb 7f3e 339e 8e3e 45a6 d13e 45cb e13e
00000040: 2696 af3f 3ee5 393f 8496 c33e 7682 143f
00000050: fa9a d83f 8fb0 813f 9ede 003f 750f be3e
00000060: c7b5 6c40 23a1 4e3e bff1 8a3e a8c5 253f
00000070: bcae 1b3f 603e 943f 160f 1c3f 5805 d43f
00000080: bf63 583e 99d3 1740 bf6f 703e 2526 1040
00000090: 5944 2e3f d08e 0c3f 4dc0 5640 8e9b 923f
000000a0: 4222 c13f 2e5d b83f e751 1f3f f041 233f
000000b0: a763 7e3f 955d 8e3f bc62 3b3f 99d4 ad3f
000000c0: 9167 b240 2e4d 4c3f 55b7 563f 23b8 653e
000000d0: 2100 aa40 9305 523e 1a83 6b3f f0e1 5c3f
000000e0: 3f0d 7d3d ae28 223f b213 fd3e 77ce 5c3d
000000f0: 8aa9 113e 8e84 ea3e d177 a33f e2ba 963f
00000100: 85d7 083d 199e e43d e8b3 cd3f ae0e ab3e
00000110: 7469 733f d8a2 f63f e6c9 3b3f d12a b63f
00000120: 5db8 f93e 11e9 a23e e592 823d ce2f 5f3f
00000130: cefa a63f 3b97 a63e e9bf 133f 57dd a03f
00000140: c61e 8e3f f8f9 c63f 368e ac3f f9d1 2c3e
00000150: 5f00 783f a97c 733f d01e 843f 066d e63f
00000160: 8aec 393e 1b17 483e 2ccc 863f 5f94 cb3e
00000170: fe2c 973e 0bb2 aa3e 5332 803e e375 983e
00000180: 1afa 413f d66c 283f b069 023e f754 d23e
00000190: c6e8 833f 8b75 c13d e9df 1e3f 9b86 ee3e
000001a0: 5ea9 3c3e 3f6b 9f3f f3f1 163e 8d97 173e
000001b0: b79c 893f 4cca 303f 63ee 1f40 9a8f 0a3f
000001c0: ba9f 0e3f 48fa 213f c3f0 dd3d 5ed5 de3e
000001d0: 44f6 0540 0a4f 9a3f 8075 653f 71b0 3940
000001e0: 4520 273f 6527 973e 3155 5c3f ea9b 673e
000001f0: 10d0 f33e ba78 e93d d8f0 c03e 0831 ad3d
0.44456533 0.2001001 0.1339301 0.23806915 0.33073395 0.11007745 0.33868802 0.42506662
1.1763312 0.18596222 0.96860385 0.809531 0.2497993 0.2785507 0.40947166 0.44100395
1.3717697 0.7261542 0.38200772 0.5801157 1.6922295 1.0132006 0.50339687 0.37121168
3.6985948 0.20178656 0.27137563 0.64754725 0.608135 1.1581535 0.6096052 1.6564131
0.211318 2.37229 0.23480128 2.2523282 0.6807304 0.54905415 3.355487 1.1453722
1.508858 1.4403436 0.6223435 0.6377249 0.9937081 1.1122309 0.7319753 1.3580505
5.5751424 0.79805267 0.8387349 0.22433524 5.3125157 0.20509939 0.9199692 0.86282253
0.06178021 0.6334332 0.4942909 0.053907838 0.1422483 0.45804256 1.277094 1.1775782
0.03340866 0.11162967 1.6070528 0.33409637 0.95082784 1.9268446 0.7335495 1.4231817
0.4877347 0.3181844 0.06375674 0.8718232 1.304529 0.32537255 0.57714707 1.2567548
1.1103141 1.5545034 1.3480899 0.16876973 0.96875566 0.9511209 1.0321903 1.8002021
0.18156639 0.19540064 1.0531058 0.39761636 0.29526514 0.3333896 0.25038394 0.2977744
0.7577225 0.6579107 0.12735629 0.41080448 1.0305412 0.09446248 0.6206041 0.4658707
0.18423983 1.2454604 0.14740734 0.14803906 1.075095 0.6905868 2.498925 0.5412537
0.55712473 0.63272524 0.10836937 0.4352216 2.0931559 1.2055371 0.89632416 2.9013941
0.65283614 0.29522243 0.8606749 0.2261807 0.47619677 0.1139998 0.3768375 0.084566176
