checkpoint_critic.pth (torch_old, 89529 bytes, 9 tensors)

fc1.weight f4 [128, 33]
0	0x3e145562	0.14485696
1	0x3d8392e3	0.06424501
2	0x3e062152	0.13098648
3	0xbe8c8558	-0.27445483
4	0x3f0dd9fe	0.55410755
5	0xbf304f9b	-0.6887147
6	0xbcca86a7	-0.02472241
7	0xbd3928df	-0.045204993
8	0x3df7d5c2	0.12101318
9	0xbe84c54d	-0.2593178
10	0x3c534016	0.012893697
11	0x3d8e70db	0.06955119
12	0xbcde117d	-0.027107948
13	0xbf186809	-0.59533745
14	0xbd29cd61	-0.04145563
15	0xbe48c76f	-0.19607328
16	0x3f4298ac	0.7601421
17	0x3d463b31	0.048396293
18	0xbd892232	-0.06695975
19	0xbe1bd653	-0.15218477
20	0x3cc21ba5	0.023694823
21	0x3c8ef4f2	0.017450783
22	0xbd74347e	-0.059620373
23	0xbc5f2124	-0.013618741
24	0xbd094c4c	-0.033520028
25	0xbd49cfbd	-0.04927038
26	0x3ef4fd58	0.47849536
27	0xbddacc81	-0.10683537
28	0x3e15b2f0	0.1461904
29	0xbd9e9f8d	-0.07745276
30	0x3dd5f254	0.10446611
31	0xbd857ec0	-0.06518316
32	0x3f16aaf9	0.58854634
33	0x3ecacb24	0.3960811
34	0x3e7d9fca	0.24767986
35	0x3bef56b7	0.0073040384
36	0x3e0f6aac	0.14005536
37	0x3efc292f	0.4925017
38	0xbda20615	-0.07911316
39	0xbe8c85ba	-0.27445775
40	0x3e34d621	0.17659809
41	0xbd9aee77	-0.07565015
42	0xbe9ba7b1	-0.30401376
43	0x3d563ac4	0.052302137
44	0x3c910954	0.017704643
45	0x3bd50805	0.0065012
46	0xbea0fa96	-0.31441182
47	0xbe1c9694	-0.15291816
48	0x3e40cf31	0.18829037
49	0xbef11ba1	-0.47091392
50	0x3f2a3d5a	0.66499865
51	0xbfe3b26e	-1.7788827
52	0x3fabbba3	1.3416637
53	0x3bdea82c	0.00679495
54	0xbb9e7d9c	-0.004836751
55	0xbc08bfaa	-0.0083464775
56	0x3d46b944	0.048516527
57	0xbdaf1c54	-0.08550325
58	0xbcd96bc5	-0.026540646
59	0x3db64bf9	0.089012094
60	0x3e1da368	0.15394366
61	0xbe035eae	-0.12829086
62	0x3da3328b	0.07968625
63	0xbdb2c2f1	-0.08728588
64	0x3d555982	0.052087314
65	0xbf0a4aa1	-0.54020125
66	0xbe0cf2f5	-0.13764556
67	0xbd03c5b2	-0.03217096
68	0xbd830083	-0.06396582
69	0xbe853bc8	-0.26022172
70	0x3e38411c	0.17993587
71	0xc005f052	-2.092793
72	0x3f00f519	0.5037399
73	0xbe7b9111	-0.24567057
74	0x3ef4d6e2	0.47820193
75	0xbe6d391b	-0.23166315
76	0xbde2d24d	-0.11075268
77	0x3c82293c	0.015888803
78	0xbd8e1fa9	-0.069396324
79	0x3e581cee	0.21104786
80	0x3d747bcf	0.059688386
81	0xbe2197fe	-0.15780637
82	0x3e2d465e	0.16921374
83	0xbe08f0b4	-0.13373071
84	0xc02d57cc	-2.7084837
85	0x3e07f2d8	0.13276231
86	0xbd194f77	-0.0374293
87	0x3cc6ec85	0.024282703
88	0xbcde783a	-0.027156938
89	0x3df41dc3	0.11919739
90	0xbd3a4097	-0.045471754
91	0xbd2af8a0	-0.041741014
92	0xbd843c30	-0.06456792
93	0x3e321257	0.17389809
94	0x3e35d4d3	0.17756967
95	0xbd8a9845	-0.06767324
96	0xbe2e1ef9	-0.17004003
97	0xbd1fc75a	-0.039008476
98	0x3e944435	0.28958288
99	0x3ef392af	0.47572848
100	0x3e985304	0.29750836
101	0xbd79c742	-0.060981043
102	0xbe6536b4	-0.22384149
103	0x3c546c97	0.012965343
104	0xbea2074e	-0.31646198
105	0xbfc76966	-1.557904
106	0x3e4fd8e9	0.20297588
107	0xbcf04f4a	-0.029334683
108	0xbc9c8355	-0.019105593
109	0x3d1ed2db	0.038775306
110	0x3e6cca8e	0.23124143
111	0x3dd3e618	0.10346621
112	0xbe7e08fc	-0.24808115
113	0xbe8d4271	-0.27589753
114	0x3c858ad5	0.016301552
115	0xbeac1b8b	-0.33614764
116	0xbd948071	-0.07251061
117	0xbf00f441	-0.503727
118	0xbfa61fa7	-1.297841
119	0xbd263c3a	-0.04058478
120	0xbce84da4	-0.028357334
121	0xbc026815	-0.007959385
122	0xbe0586f2	-0.13039759
123	0xbede89e8	-0.4346459
124	0x3d40c466	0.0470623
125	0x3e0c2ebb	0.13689701
126	0x3e0429af	0.12906526
127	0x3c2e63a5	0.010643874
128	0x3c6f7c80	0.014617085
129	0xbd72d7e2	-0.059287913
130	0x3d518422	0.051151402
131	0xbdf29d8c	-0.11846456
132	0x3ebce074	0.36889994
133	0x3e809e8a	0.25120956
134	0x3df6a452	0.1204306
135	0xbdb8feb5	-0.090329565
136	0x3f380452	0.7188159
137	0x3f823298	1.017169
138	0x3e909eff	0.28246304
139	0xbe72b666	-0.23702392
140	0x3e711cf0	0.23546195
141	0x3e1879c1	0.14890195
142	0x3e79b02b	0.24383609
143	0xbe75245e	-0.23939654
144	0xbc4a661a	-0.0123534445
145	0xbd55492c	-0.052071735
146	0xbea29c1f	-0.31759736
147	0xbe6022bc	-0.2188825
148	0xbf8eccc5	-1.1156241
149	0x3d08d94a	0.033410348
150	0xbbb82ee6	-0.005620825
151	0x3ec057f0	0.3756709
152	0xbc9b776f	-0.018977849
153	0xbdd1c6f4	-0.102430254
154	0x3e170e8f	0.14751647
155	0x3ea18632	0.31547695
156	0x3d35826f	0.044313844
157	0xbed784c0	-0.42093468
158	0x3e43e87c	0.19131655
159	0x3f0eda94	0.55802274
160	0x3e0bf752	0.13668564
161	0x3c32f4f8	0.010922663
162	0xbef2681a	-0.47345048
163	0xbd09ddbe	-0.033658735
164	0xbfeeae25	-1.8646895
165	0x3f0c44da	0.5479256
166	0xbddb8f6a	-0.107207134
167	0x3c5f4242	0.013626637
168	0x3f640075	0.890632
169	0x3de8ed7f	0.11373424
170	0x3f134fd4	0.57543683
171	0xbe2cfa73	-0.16892414
172	0xbde59332	-0.11209716
173	0xbdbe9c23	-0.093071245
174	0x3ddbd21e	0.10733436
175	0x3ea85703	0.32878885
176	0x3db875b0	0.09006822
177	0xbc295730	-0.0103357285
178	0xbe5df7cf	-0.21676563
179	0x3ebe14b9	0.37125185
180	0xbe0c2ee3	-0.13689761
181	0x3eb0dad3	0.3454195
182	0xbdbd6af4	-0.09248915
183	0x3f41189c	0.75428176
184	0x3fcf2b02	1.6185
185	0x3c058f1a	0.008151794
186	0x3d4418d9	0.04787526
187	0xbf0802f5	-0.5312951
188	0xbe88a09d	-0.26685038
189	0xbc8c281c	-0.01710897
190	0xbdc35bd1	-0.09538997
191	0x3e099789	0.13436712
192	0xbe409de3	-0.18810229
193	0x3d5bdd70	0.053677976
194	0x3cd258a8	0.02567704
195	0x3e6d38d6	0.23166212
196	0xbd6e49d6	-0.058175884
197	0x3f25d688	0.64780474
198	0x3d375c16	0.044765554
199	0x3e85d38c	0.2613796
200	0xbd3980aa	-0.04528872
201	0x3e69e282	0.22840312
202	0xbf273b6a	-0.65325034
203	0x3f2a9615	0.66635257
204	0xbe62c424	-0.22145134
205	0x3e216f45	0.15765102
206	0x3eb4a317	0.35280678
207	0xbce9fd30	-0.028563112
208	0xbd32d6f2	-0.04366202
209	0x3dedbe7f	0.116086
210	0x3ded79f4	0.11595526
211	0xbde6a1da	-0.112613395
212	0xbe20c898	-0.1570152
213	0x3d1c100b	0.038101237
214	0x3eea1cbd	0.4572505
215	0x3c3ed900	0.0116484165
216	0xbf110787	-0.5665211
217	0x3d484302	0.04889203
218	0x3d6b8b23	0.057505738
219	0x3def3b9b	0.11681291
220	0x3e06d7a0	0.13168192
221	0xbdc75e9c	-0.09734842
222	0xbcc706d4	-0.024295248
223	0x3d729bc7	0.059230592
224	0x3e3b4771	0.18288971
225	0x3ec5ef92	0.3865934
226	0x3e0cbc65	0.13743742
227	0x3dae56e1	0.085126646
228	0xbf00355b	-0.50081414
229	0xbd6df668	-0.05809632
230	0x403645de	2.8480144
231	0x3deab62d	0.114605285
232	0x3bfe6b25	0.0077642375
233	0xbda07dbe	-0.078364834
234	0xbf215c45	-0.6303142
235	0x3f323dd3	0.69625586
236	0x3ef0daf5	0.4704205
237	0xbdd86ebf	-0.10567998
238	0xbc8538d5	-0.016262451
239	0xbefb5206	-0.49086016
240	0x3de7c212	0.11316313
241	0x3d7d16e0	0.061789393
242	0xbd83d3b5	-0.06436864
243	0x3cbf8098	0.023376748
244	0x3e3dfaff	0.18552779
245	0xbdf4099f	-0.119158976
246	0x3e837456	0.25674695
247	0xbe018bc7	-0.12650977
248	0x3ecd7dc5	0.40135017
249	0xbeb18c85	-0.3467752
250	0x3ed8dc51	0.42355588
251	0x3ca6c876	0.02035926
252	0xbb655ef9	-0.0034999235
253	0xb9c17336	-0.00036897667
254	0x3e1f667a	0.15566435
255	0xbd034102	-0.03204442

fc1.bias f4 [128]
0	0x3dc99567	0.09842949
1	0x3d880650	0.06641829
2	0x3becb4b0	0.007223688
3	0x3b15e300	0.0022870898
4	0xbf193f5a	-0.5986229
5	0x3e7a4b0a	0.24442688
6	0xbf097934	-0.53700566
7	0xbf06e3cf	-0.5269136
8	0xbe180ac3	-0.14847855
9	0x3dbbae58	0.09164113
10	0x3eb74b1e	0.35799497
11	0xbf2e2dfa	-0.68038905
12	0xbe4c4ac3	-0.19950394
13	0x3f039de7	0.51412815
14	0xbd2fb88a	-0.0429006
15	0xbd2b8dcc	-0.041883275
16	0xbe5cfa38	-0.21579826
17	0xbedbc2f6	-0.4292218
18	0xbd5967c4	-0.053077474
19	0xbd8c409c	-0.06848261
20	0xbdc928d0	-0.098222375
21	0xbe07acd9	-0.1324953
22	0xbcfed058	-0.031105205
23	0xbf0c9e48	-0.5492902
24	0xbe0113b2	-0.1260517
25	0xbec84c7c	-0.39120853
26	0x3e669049	0.22515978
27	0xbef2ee31	-0.4744735
28	0xbea03443	-0.31289873
29	0xbf2c0cd9	-0.67207104
30	0xbed6f2a2	-0.4198199
31	0xbea7c6ac	-0.32768762
32	0xbe81a08d	-0.25317803
33	0xbe8251e6	-0.2545311
34	0x3e9ceedd	0.30650988
35	0xbd6d713b	-0.057969313
36	0xbf36c7a8	-0.713984
37	0x3d7a8e5a	0.061170913
38	0xbf06c3ac	-0.5264232
39	0xbe91de18	-0.28489757
40	0xbddc15b7	-0.10746329
41	0xbd8f843a	-0.07007642
42	0xbef47531	-0.4774566
43	0x3b0e3fef	0.0021705588
44	0xbeee562a	-0.46550113
45	0xbe88b4b5	-0.2670037
46	0xbe8a4276	-0.2700383
47	0xbf11b522	-0.5691701
48	0xbe795ec0	-0.2435255
49	0xbd1655dd	-0.03670298
50	0xbe94ce76	-0.29063767
51	0x3db3b37c	0.08774468
52	0xbf274ccc	-0.6535156
53	0xbe5585e3	-0.20851855
54	0x3e0e9919	0.1392559
55	0xbf21f3e4	-0.6326277
56	0xbe91d2e0	-0.28481197
57	0xbe19b007	-0.15008555
58	0xbdbb3f01	-0.091428764
59	0xbec9722c	-0.3934492
60	0x3dda7a91	0.10667909
61	0xbe45e52a	-0.193257
62	0x3d5d6128	0.054047734
63	0x3ea8dac7	0.32979414
64	0xbeeb6689	-0.45976666
65	0xbed64552	-0.41849762
66	0x3e83800f	0.25683638
67	0x3e207a2a	0.15671602
68	0xbec428a1	-0.38312247
69	0xbee38e6b	-0.44444594
70	0x3d000d08	0.031262428
71	0xbe10f24a	-0.14154926
72	0xbe7aac7a	-0.24479857
73	0xbec1fcf9	-0.37888315
74	0x3f160a30	0.58609295
75	0xbe865d68	-0.26243138
76	0xbe8d2fde	-0.27575582
77	0xbe4be0fa	-0.1991004
78	0xbede9313	-0.43471584
79	0xbe30d3dc	-0.17268318
80	0x3db0e862	0.086380735
81	0x3d931edf	0.071836226
82	0x3eeaa167	0.45826265
83	0xbe49ac46	-0.19694623
84	0x3e0b295c	0.13589996
85	0xbe9c0af4	-0.30477107
86	0xbd3d2285	-0.0461755
87	0xbed1bd28	-0.40964627
88	0xbe3ce9d9	-0.18448581
89	0xbe5173db	-0.20454352
90	0xbe925439	-0.28579882
91	0xbec5bf33	-0.38622436
92	0x3e12bfaf	0.14330934
93	0xbdbde728	-0.09272605
94	0xbeb0dcb4	-0.34543383
95	0xbc6ab3ce	-0.014325095
96	0x3edd5a25	0.43232837
97	0xbd174cff	-0.036938664
98	0xbf37bf94	-0.717767
99	0xbe419a06	-0.18906412
100	0x3eaaac00	0.3333435
101	0xbd46c819	-0.04853067
102	0xbd226af6	-0.039652787
103	0xbee937fb	-0.45550522
104	0xbeb9c774	-0.36284983
105	0xbf0c975f	-0.54918474
106	0xbee53b55	-0.4477183
107	0xbe805a2b	-0.25068793
108	0xbeb9ea04	-0.36311352
109	0xbe03ad57	-0.12859093
110	0xbe9e5603	-0.30924997
111	0x3c1a9559	0.009435021
112	0xbf1fde01	-0.62448126
113	0xbe2ed06c	-0.17071694
114	0xbefbe3e6	-0.4919731
115	0xbede4d48	-0.43418336
116	0xbe2434ee	-0.16035816
117	0x3e81dfb9	0.25366
118	0xbd9892d4	-0.0744988
119	0xbc9d0f6a	-0.019172389
120	0x3ec6606c	0.3874544
121	0xbe8124c5	-0.25223365
122	0x3e8a5def	0.2702479
123	0xbe8fe0e8	-0.28101277
124	0x3eb6332e	0.35585922
125	0xbe59c34b	-0.21265905
126	0xbecfb95e	-0.4057111
127	0xbeaa4d6c	-0.33262193

fc2.weight f4 [128, 132]
0	0x3e867a04	0.26264966
1	0xbcbc152d	-0.022959316
2	0x3e145c52	0.14488342
3	0x3ec4c63c	0.3843249
4	0xbe523c1c	-0.20530742
5	0xbe2bfffc	-0.16796869
6	0xbcab7399	-0.020929145
7	0x3e3c0cbb	0.18364231
8	0xbe39cb17	-0.18143879
9	0x3d7b4820	0.06134808
10	0xbeb3b9e8	-0.35102773
11	0x3cba7816	0.02276234
12	0xbecb4aea	-0.39705592
13	0xbef271a9	-0.4735234
14	0xbe88a4cc	-0.2668823
15	0xbd9fc42c	-0.07801089
16	0xbeb45bcd	-0.35226288
17	0xbe4a4041	-0.19751073
18	0xbd0efcff	-0.034909245
19	0x3e065a8e	0.13120481
20	0x3e95eaf8	0.2928083
21	0x3cb8e79d	0.02257138
22	0xbe11836b	-0.14210288
23	0xbd4138c1	-0.047173265
24	0xbcdaa4eb	-0.026689967
25	0x3e9a5558	0.30143237
26	0x3de707a7	0.112807564
27	0x3e3d2c67	0.1847397
28	0xbc549fa8	-0.012977518
29	0xbd5031af	-0.050828632
30	0xbe6a675d	-0.22890992
31	0x3e099d10	0.13438821
32	0x3e933845	0.28753868
33	0x3eae9608	0.3409884
34	0x3e83cb47	0.25741026
35	0xbecf3874	-0.40472758
36	0x3efccad0	0.49373484
37	0x3d213afe	0.0393629
38	0xbe89aefb	-0.26891312
39	0xbe4c9ba3	-0.19981246
40	0xbcffb99b	-0.031216433
41	0x3cf3f2b1	0.02977881
42	0x3c910092	0.017700467
43	0x3b8be21f	0.004268899
44	0xbe551093	-0.20807104
45	0xbc48dab1	-0.012259171
46	0xbd250bb4	-0.040294364
47	0x3bfad0fa	0.0076543065
48	0xbe7fe87c	-0.2499103
49	0xbdc34768	-0.09535104
50	0xbdaffa87	-0.08592706
51	0x3d48340d	0.048877764
52	0xbc8c4644	-0.017123349
53	0x3e05a2eb	0.1305043
54	0x3e86f290	0.26356936
55	0x3cd19593	0.025584018
56	0xbd90ee83	-0.070767425
57	0xbe133c18	-0.14378393
58	0xbe7f28db	-0.24917929
59	0xbd99b35a	-0.07504912
60	0xbe1b1450	-0.15144467
61	0x3e3446ff	0.17605208
62	0xbe1e7eb8	-0.15478027
63	0x3eb9db34	0.3630005
64	0xbeab3be1	-0.3344412
65	0x3dafd26d	0.085850574
66	0xbe4e5738	-0.20150459
67	0xbe85e6c4	-0.26152623
68	0xbe16e807	-0.14736949
69	0x3d0cee05	0.03440668
70	0xbd708ebd	-0.058729876
71	0xbeaa7a41	-0.33296397
72	0x3dfbcd06	0.122949645
73	0x3e8ab3c9	0.2709029
74	0x3d4391e3	0.04774655
75	0xbd1fd973	-0.039025735
76	0x3ca4b2ff	0.020104883
77	0xbe109188	-0.14118016
78	0x3e5aa36b	0.21351402
79	0xbdb9ec5c	-0.09078285
80	0xbd75b4f1	-0.059987012
81	0xbe392c1c	-0.18083233
82	0xbd341d54	-0.043973282
83	0x3e111fa7	0.1417223
84	0xbdb51219	-0.088413425
85	0x3e92022d	0.28517285
86	0xbd9dd280	-0.07706165
87	0x3e24ac5b	0.16081373
88	0xbdbc63fb	-0.09198757
89	0x3db19eb8	0.08672851
90	0x3d8e17ea	0.06938155
91	0x3cd94c46	0.026525628
92	0x3d8c1d0c	0.06841478
93	0x3e85e93e	0.26154512
94	0x3d26315e	0.040574424
95	0x3cb747e8	0.022373155
96	0x3e2d38f6	0.1691626
97	0x3d1515da	0.036397792
98	0xbe4b1114	-0.19830734
99	0xbd553297	-0.0520502
100	0xbef4c205	-0.47804275
101	0xbe8e32ee	-0.2777323
102	0xbdd5ab80	-0.10433102
103	0xbeae5f92	-0.3405729
104	0x3de13e09	0.109981604
105	0x3e82330c	0.2542957
106	0xbe9520b9	-0.29126528
107	0xbe71f43f	-0.23628329
108	0x3d975de7	0.07390957
109	0xbdcc658f	-0.09980308
110	0x3cf1b7c4	0.029506572
111	0x3e0ad443	0.13557534
112	0x3be70f69	0.0070513976
113	0xbd972e26	-0.07381849
114	0xbd0feaa2	-0.035135873
115	0x3e9a5fff	0.30151364
116	0xbc807d38	-0.015684709
117	0x3e204889	0.1565267
118	0xbe3dcdeb	-0.18535583
119	0xbdd65df4	-0.10467139
120	0x3e936310	0.28786516
121	0x3d744203	0.059633266
122	0xbe146b20	-0.1449399
123	0xbdd89398	-0.10575026
124	0xbdb29783	-0.08720305
125	0xbeef8934	-0.46784365
126	0xbdd4646a	-0.10370715
127	0xbdaa66c5	-0.08320383
128	0x3ddafca9	0.10692722
129	0xbd1af57c	-0.03783177
130	0xbd627c41	-0.05529428
131	0xbe103628	-0.14083159
132	0x3ed0b13a	0.40760213
133	0x3d182074	0.037140325
134	0x3cb82657	0.02247922
135	0xbebc7e3a	-0.36815053
136	0xbf35b307	-0.709763
137	0xbf32c900	-0.6983795
138	0x3daf196c	0.08549771
139	0xbe8b1420	-0.27163792
140	0xbf08bdf1	-0.5341483
141	0xbf136e35	-0.5759004
142	0x3d489498	0.048969835
143	0x3de489d4	0.11159101
144	0x3e8f3db8	0.27976775
145	0x3ed8abc5	0.4231855
146	0xbd8aa919	-0.06770534
147	0xbe8b6b16	-0.27230138
148	0xbf098b4f	-0.53728193
149	0xbf5adc64	-0.8549254
150	0xbd909e9b	-0.070615016
151	0xbf674898	-0.90345144
152	0xbf4dff7e	-0.80467975
153	0xbe1d445b	-0.15358107
154	0xbc87b8c7	-0.0165676
155	0x3c65ed0f	0.01403357
156	0x3e74424b	0.23853414
157	0x3d86f8ca	0.065904215
158	0xbe845798	-0.2584808
159	0x3f2533e1	0.64532286
160	0xbf193a02	-0.5985414
161	0xbebf52b4	-0.37367785
162	0xbf3ffb20	-0.7499256
163	0xbd92e839	-0.07173199
164	0xbf4f894b	-0.8106887
165	0xbedb0ce7	-0.4278328
166	0xbe9c79e7	-0.30561754
167	0x3e62c794	0.22146446
168	0xbdd970fa	-0.10617252
169	0xbdfb2832	-0.12263526
170	0x3e2d7a27	0.16941129
171	0xbe2c5571	-0.16829468
172	0xbd3df47e	-0.046375744
173	0x3db9a6ea	0.090650395
174	0x3e9a8fb6	0.30187768
175	0x3de8a8d1	0.11360324
176	0xbed62f8b	-0.41833147
177	0xbe46dffb	-0.1942138
178	0x39929d2a	0.00027964386
179	0xbecbc88d	-0.39801446
180	0x3def3ff6	0.116821215
181	0xbf5320e8	-0.82472086
182	0xbf45709d	-0.7712496
183	0xbefb4f60	-0.49083996
184	0xbf97214b	-1.1807035
185	0x3e4ac90f	0.1980326
186	0x3e4eb809	0.20187391
187	0x3f53ed50	0.82783985
188	0xbf6ffc55	-0.93744403
189	0xbddabddc	-0.10680744
190	0xbeeb6e96	-0.45982808
191	0xbf587c27	-0.8456444
192	0x3ea8800b	0.3291019
193	0x3e3fccd4	0.1873048
194	0xbea9ef75	-0.33190504
195	0xbd24e072	-0.04025311
196	0xbd8f8e97	-0.07009619
197	0x3dc38f75	0.09548847
198	0xbec03770	-0.37542295
199	0xbf2541cb	-0.6455352
200	0xbe8ec6f4	-0.27886164
201	0xbeb50b49	-0.35360172
202	0xbe45d28d	-0.193186
203	0xbd8b503d	-0.068024136
204	0xbf010dec	-0.5041187
205	0xbe893098	-0.26794887
206	0x3f41589d	0.7552584
207	0xbdebfff7	-0.11523431
208	0x3e386375	0.1800669
209	0xbd323a7e	-0.043512814
210	0x3f220973	0.6329567
211	0x3e1a8162	0.15088418
212	0xbe08df2d	-0.13366385
213	0x3d9b9eee	0.07598673
214	0xbf8217d6	-1.0163524
215	0x3dc8e9a2	0.09810187
216	0x3d46c8b4	0.04853125
217	0x3e8d9cdc	0.27658737
218	0x3ef74d5a	0.48301202
219	0xbf465351	-0.7747088
220	0x3e1b49a1	0.15164806
221	0xbee99a2b	-0.45625433
222	0x3d325e13	0.043546747
223	0xbf2efb82	-0.6835252
224	0xbf917202	-1.1362917
225	0xbda7d175	-0.08194248
226	0xbf1772ed	-0.5915974
227	0x3e8a446c	0.27005327
228	0x3ea21eaf	0.31664035
229	0xbf52b0ce	-0.8230103
230	0xbe42b1c8	-0.1901313
231	0x3d2dc461	0.04242361
232	0xbedf3f2b	-0.4360288
233	0xbe8e54e5	-0.27799144
234	0x3b4881ff	0.0030595062
235	0x3e5ed41d	0.21760602
236	0xbdf6ad3e	-0.12044762
237	0xbea44438	-0.32083297
238	0x3dd6fce8	0.10497457
239	0x3e7a63b7	0.244521
240	0xbd86f559	-0.06589765
241	0xbf1d5efa	-0.6147305
242	0xbede5f11	-0.43431905
243	0x3e6c771c	0.23092312
244	0x3d360296	0.04443606
245	0x3dc57aba	0.09642549
246	0x3c8c2e71	0.017111989
247	0xbebd6201	-0.36988834
248	0xbe86f03c	-0.2635516
249	0x3ea7d033	0.3277603
250	0x3e236b30	0.15958858
251	0xbeaca05f	-0.33716103
252	0x3e2de93e	0.16983506
253	0xbe78747c	-0.24263185
254	0xbf51b043	-0.8190958
255	0x3f0cb1d2	0.5495883

fc2.bias f4 [128]
0	0x3f22df28	0.6362176
1	0xbf25dc66	-0.64789426
2	0xbf3d36af	-0.73911566
3	0xbda149a9	-0.07875378
4	0xbeecbfe7	-0.4624016
5	0x3e787db6	0.24266705
6	0x3c99c189	0.018769043
7	0x3f6f2424	0.9341452
8	0xbf15339e	-0.58281887
9	0xbe9860b9	-0.29761294
10	0xbebc3c8f	-0.36764953
11	0xbf12daa6	-0.5736488
12	0xbf4074e1	-0.75178343
13	0x3ecc9051	0.39953855
14	0x3ebb7ca3	0.36618528
15	0x3db882c0	0.090093136
16	0xbeb8d65f	-0.36101052
17	0xbefed852	-0.49774414
18	0xbf466ea7	-0.7751259
19	0xbf1dbec4	-0.6161921
20	0xbf1505b8	-0.5821185
21	0xbd74fb2c	-0.05980985
22	0xbf17bdc5	-0.5927394
23	0xbf213581	-0.62972265
24	0xbddf4371	-0.10901535
25	0x3ef9b883	0.48773584
26	0xbebbc9cd	-0.366774
27	0x3e5cdf73	0.21569614
28	0x3e9fdeaa	0.31224567
29	0x3ea83109	0.3284991
30	0x3e317935	0.17331393
31	0x3f8d1a3a	1.1023629
32	0xbf537acf	-0.82609266
33	0x3d27e580	0.040990353
34	0xbdfe7aad	-0.12425742
35	0xbf21b397	-0.6316466
36	0xbf24bc3f	-0.6434974
37	0x3eb61bf8	0.35568213
38	0xbf356cf0	-0.7086935
39	0xbee4fe94	-0.44725478
40	0xbf158c17	-0.58416885
41	0x3e80ad87	0.2513239
42	0x3c615be2	0.013754817
43	0xbec602f6	-0.38674134
44	0xbf45a2c7	-0.77201504
45	0x3e601d27	0.2188612
46	0x3de16e6b	0.11007389
47	0xbe2f14ad	-0.17097731
48	0x3ee5924c	0.44838178
49	0x3e9ecbd9	0.31014898
50	0xbf198630	-0.5997038
51	0xbef850f2	-0.48499256
52	0xbf208add	-0.6271189
53	0xbf4dfb4d	-0.8046158
54	0x3ec8e45c	0.39236724
55	0x3ef85da2	0.48508936
56	0xbecab4b2	-0.39590985
57	0x3d875003	0.06607058
58	0xbf020842	-0.5079385
59	0xbeca23e0	-0.39480495
60	0x3e70b93f	0.23508166
61	0xbf0c3605	-0.5476993
62	0x3e0fac91	0.14030673
63	0xbf4b81b1	-0.7949477
64	0xbeb1017f	-0.34571454
65	0x3e3a7bc2	0.18211272
66	0x3e927315	0.28603426
67	0xbe1a8f42	-0.15093711
68	0xbf1b7f93	-0.6074154
69	0x3e4759cc	0.19467849
70	0xbf1dc345	-0.6162608
71	0xbef18302	-0.47170264
72	0xbf1faff7	-0.62377876
73	0xbec0face	-0.3769135
74	0xbeac3bf6	-0.33639497
75	0x3f87f9dc	1.0623126
76	0xbf286746	-0.6578258
77	0xbf26bf37	-0.6513552
78	0xbf1bb0a5	-0.60816413
79	0xbf505704	-0.81382775
80	0xbf2376e4	-0.6385329
81	0xbefd8f65	-0.49523464
82	0xbeb5da59	-0.3551815
83	0x3d2748a9	0.04084078
84	0x3f69ae68	0.9128175
85	0xbee8ee8c	-0.45494497
86	0xbf36e5eb	-0.71444577
87	0x3e615957	0.22006737
88	0xbf130f83	-0.57445544
89	0xbed3aeed	-0.41344395
90	0xbef9b201	-0.4876862
91	0xbe63c97e	-0.22244832
92	0xbf00f768	-0.5037751
93	0xbea678b8	-0.32513976
94	0x3e346310	0.17615914
95	0xbc7428d5	-0.014902313
96	0x3f7ca3bd	0.98687345
97	0x3db87c82	0.09008123
98	0xbaa8b99d	-0.00128727
99	0xbe80e762	-0.2517653
100	0xbf596299	-0.84916073
101	0x3f9326cd	1.1496216
102	0xbf3bde91	-0.73386484
103	0xbf0beba5	-0.5465644
104	0xbf233d42	-0.63765347
105	0x3ea24d8c	0.3169979
106	0xbe8c38ce	-0.2738709
107	0xbf0121be	-0.5044211
108	0xbf17cc00	-0.59295654
109	0x3e30420d	0.17212696
110	0xbf20a55c	-0.6275232
111	0x3ec68b10	0.3877797
112	0xbf074b1d	-0.5284899
113	0x3e8afbb3	0.27145156
114	0x3e05fc93	0.1308463
115	0xbd84c862	-0.064835325
116	0xbf1f5bf8	-0.6224971
117	0xbf4868f7	-0.78285164
118	0xbf1e226c	-0.61771274
119	0xbee7e8d8	-0.45294833
120	0x3f25a905	0.6471103
121	0xbf453256	-0.7702993
122	0xbdd41bc1	-0.10356856
123	0xbed14022	-0.40869242
124	0xbf0cc956	-0.54994714
125	0xbf0cb4e1	-0.549635
126	0xbf025c48	-0.5092206
127	0xbf264e06	-0.64962804

fc3.weight f4 [1, 128]
0	0x3d052e91	0.032515112
1	0xbe7deaaf	-0.24796556
2	0xbf5a3d13	-0.8524944
3	0x3d96196c	0.073290676
4	0xbca9ee71	-0.02074358
5	0x3d48e7c5	0.049049158
6	0x3cccd205	0.025002489
7	0x3dc5fe91	0.09667695
8	0xbde3bb3a	-0.11119695
9	0xbded0816	-0.11573808
10	0xbd0a86e4	-0.033820048
11	0xbd447799	-0.04796562
12	0xbf88eb66	-1.0696838
13	0x3d473b80	0.048640728
14	0x3d23bace	0.039973073
15	0x3d782049	0.060577665
16	0xbd2422ed	-0.04007237
17	0xbdc96b8e	-0.098349676
18	0xbe091bac	-0.13389462
19	0xbe2b31c9	-0.1671821
20	0xbd3acda4	-0.04560627
21	0x3d524023	0.051330697
22	0xbe927b98	-0.2860992
23	0xbd0455f1	-0.032308523
24	0x3c9d39ba	0.019192565
25	0x3d2dd2ea	0.04243747
26	0x3d4dc45b	0.050236087
27	0x3d78f36b	0.060779016
28	0x3d557486	0.05211308
29	0x3d07da16	0.033166967
30	0x3d2991d1	0.041398827
31	0x3e2a3e3c	0.16625303
32	0xbf82b0b9	-1.0210181
33	0x3d07c132	0.03314323
34	0x3de6b7eb	0.11265548
35	0xbeb2d3b6	-0.34927148
36	0xbe0ca5db	-0.13735144
37	0x3cf45c14	0.029829063
38	0xbefac5d0	-0.48979044
39	0x3e184b4c	0.14872473
40	0xbe74c0e0	-0.23901701
41	0x3be6879f	0.0070352103
42	0x3cda2b9a	0.026632119
43	0x3d104ccf	0.0352295
44	0xbdbdae43	-0.092617534
45	0x3cb84996	0.022496026
46	0x3d8ccb60	0.06874728
47	0x3ce92e9e	0.028464612
48	0x3d69c108	0.057068855
49	0x3cb29f82	0.021804575
50	0xbf7f7e40	-0.9980202
51	0xbd976c28	-0.07393676
52	0xbe3d3f82	-0.18481258
53	0xbdb8c30a	-0.09021576
54	0x3cf41f8e	0.029800203
55	0x3d554d7a	0.05207584
56	0xbcf97623	-0.03045184
57	0x3cd9728e	0.026543882
58	0xbdc4be85	-0.09606651
59	0x3e0111c1	0.12604429
60	0x3d252f39	0.04032824
61	0xbd36806e	-0.044556074
62	0x3d0af3e7	0.03392401
63	0xbf9e15d8	-1.2350416
64	0xbe3d1e75	-0.1846865
65	0x3d303a9f	0.043024655
66	0x3d31603e	0.043304674
67	0x3d5574c4	0.05211331
68	0xbdba42e0	-0.09094787
69	0x3ca7dd81	0.020491363
70	0xbde9093f	-0.11378717
71	0xbcfc5b59	-0.030805277
72	0xbcc2af79	-0.023765313
73	0xbd67b7fc	-0.056571946
74	0x3d897204	0.067112
75	0x3e0e590d	0.13901158
76	0xbde6bdae	-0.11266647
77	0xbdb233be	-0.08701275
78	0xbdd61ad3	-0.10454335
79	0xbe1e6724	-0.15469033
80	0xbda2d466	-0.07950668
81	0xbc974344	-0.018464692
82	0x3d5e5148	0.054276735
83	0x3d2a2e9f	0.041548368
84	0x3e044104	0.12915426
85	0xbcf5c039	-0.029998885
86	0xbd2daa69	-0.042398844
87	0x3c89c2ba	0.016816486
88	0xbe9c9719	-0.30584028
89	0xbe83fa21	-0.2577677
90	0xbded4800	-0.115859985
91	0x3d4f7813	0.05065162
92	0xbd423d43	-0.047421705
93	0x3cbfaaa0	0.02339679
94	0x3d1e7b4c	0.038691804
95	0x3cafe325	0.021470616
96	0x3db8acb1	0.09017313
97	0x3d2b6f3e	0.041854136
98	0x3d5a3c8f	0.05328041
99	0x3d05e3e9	0.032688055
100	0xbefb3340	-0.49062538
101	0x3dfb7010	0.122772336
102	0xbd2a1ee6	-0.041533373
103	0xbe206a3c	-0.15665525
104	0xbeea89d9	-0.45808294
105	0x3d36f3ed	0.04466622
106	0x3dce27fe	0.10066222
107	0xbd1159ee	-0.035486154
108	0xbe3e96ba	-0.18612185
109	0x3ca6a8be	0.020344134
110	0xbe5c2562	-0.21498635
111	0x3d71ef75	0.059066255
112	0xbe0769e5	-0.1322399
113	0x3d86577e	0.065596566
114	0x3cb201ea	0.021729428
115	0x3cd754a5	0.026285479
116	0xbe98a9fc	-0.29817188
117	0xbf14b0e2	-0.580824
118	0xbd7481f7	-0.059694257
119	0xbd4c102c	-0.04982011
120	0x3e0589d6	0.13040861
121	0xbe81f78a	-0.2538417
122	0x3d4d4dae	0.05012291
123	0xbd67d135	-0.056596
124	0x3ddc8375	0.10767261
125	0xbded1f5a	-0.115782455
126	0xbe0dd96e	-0.13852474
127	0xbe4c9e6d	-0.1998231

bn1.weight f4 [128]
0	0x3eabaa0c	0.33528173
1	0x3eac712b	0.3368009
2	0x3e419778	0.18905437
3	0x3db0e92f	0.08638226
4	0x3e08ae89	0.1334783
5	0x3ea203ff	0.31643674
6	0x3e77fd2b	0.2421767
7	0x3eaf7164	0.34266198
8	0x3dfc189d	0.12309382
9	0x3e543f3f	0.20727251
10	0x3ec74689	0.38921002
11	0x3e0afb9f	0.13572548
12	0x3e898173	0.26856574
13	0x3b9ce766	0.004788327
14	0x3ecd0123	0.4003993
15	0x3e8e2ec4	0.27770054
16	0x3e4a9491	0.19783236
17	0x3ecae6f6	0.39629334
18	0x3f34194b	0.70351094
19	0x3e4a65d4	0.19765407
20	0x3eb4b7e3	0.35296544
21	0x3ead00e0	0.3378973
22	0x3e7cce89	0.24688162
23	0x3f0e7555	0.55647784
24	0x3ed19940	0.40937233
25	0x3e824372	0.25442082
26	0x3ee061c2	0.43824583
27	0x3d4f0f2a	0.05055157
28	0x3e727d96	0.2368072
29	0x3e328f73	0.17437534
30	0x3edc7c3b	0.4306353
31	0x3ebba18c	0.36646688
32	0x3f0aee55	0.54269916
33	0x3e519d59	0.2047018
34	0x3e56aa57	0.20963417
35	0x3e524c3c	0.20536894
36	0x3e42d23e	0.19025514
37	0x3d5146ac	0.05109279
38	0x3e172d02	0.14763263
39	0x3e8a437d	0.27004614
40	0x3f161924	0.5863211
41	0x3ec81e6e	0.39085716
42	0x3ecc2b8e	0.3987698
43	0x3e7d3ac9	0.24729456
44	0x3e97117a	0.2950552
45	0x3eaee55b	0.3415936
46	0x3ecf2798	0.40459895
47	0x3e9c5659	0.30534628
48	0x3e867b73	0.2626606
49	0x3e7c9aed	0.24668474
50	0x3ece9ea4	0.40355408
51	0x3e96f310	0.29482317
52	0x3e7dff3f	0.248044
53	0x3e7acd91	0.2449248
54	0x3ebf9fa6	0.3742649
55	0x3e8bdbde	0.27316183
56	0x3ecd2ac9	0.40071705
57	0x3e8f443a	0.2798174
58	0x3e41a95d	0.18912263
59	0x3e9f64cb	0.31131586
60	0xbed3a6f8	-0.41338325
61	0x3e9fc38a	0.31203872
62	0x3e9eb5fa	0.30998212
63	0x3e9a67a0	0.30157185
64	0x3ebbe69f	0.36699387
65	0x3f21708d	0.63062364
66	0x3ea82898	0.3284347
67	0x3e90f262	0.28309923
68	0x3e980508	0.2969134
69	0x3e11c2e1	0.14234497
70	0x3eb3dd92	0.35129982
71	0x3e5d7405	0.21626289
72	0x3e57d06b	0.21075599
73	0x3df23c5a	0.118279174
74	0x3ec15eae	0.37767547
75	0x3e2ca466	0.16859588
76	0x3e22fb87	0.15916263
77	0x3eb0dece	0.34544986
78	0x3dc506f8	0.0962047
79	0x3eb51ef0	0.35375166
80	0x3e66ce8e	0.22539732
81	0x3e7341ba	0.23755541
82	0x3e843b32	0.25826412
83	0x3ea8b95c	0.32953918
84	0x3ea082b5	0.31349722
85	0x3e811a64	0.25215447
86	0x3dde59f2	0.108569995
87	0x3e6b74a3	0.22993712
88	0x3d751f6c	0.05984442
89	0x3eb16e10	0.34654284
90	0x3e7f648a	0.24940696
91	0x3e834cbc	0.2564448
92	0x3e6db8f0	0.2321508
93	0x3e47882b	0.19485538
94	0x3e83e999	0.25764158
95	0x3e4b2c15	0.19841035
96	0x3e551e90	0.2081244
97	0x3e522ea2	0.20525602
98	0x3d7f198e	0.06228023
99	0x3e1dd801	0.1541443
100	0x3ee27b5e	0.44234747
101	0x3ec5bf69	0.38622597
102	0x3f6ea67e	0.93222797
103	0x3e97b751	0.29632047
104	0x3e4c19a3	0.19931655
105	0x3e6ac62c	0.22927159
106	0x3e35f99b	0.17770998
107	0x3e8e2d59	0.27768973
108	0x3edee4c2	0.43533903
109	0x3e83cea2	0.25743586
110	0x3e9e9dff	0.30979916
111	0x3e715361	0.23566963
112	0x3e926d01	0.28598788
113	0x3f050328	0.5195794
114	0x3e9834f9	0.29727915
115	0x3e802506	0.25028247
116	0x3e97446d	0.29544392
117	0x3e4a5519	0.19759025
118	0x3e6a84f3	0.22902279
119	0x3e483556	0.19551596
120	0x3e921988	0.28535104
121	0x3e64b683	0.22335248
122	0x3e841298	0.25795436
123	0x3eb255c8	0.3483107
124	0x3f028604	0.5098574
125	0x3e3731e3	0.17890124
126	0x3ed55f74	0.41674387
127	0x3eca12d4	0.3946749

bn1.bias f4 [128]
0	0xbe57cee8	-0.21075022
1	0x3e2a747f	0.16646002
2	0xbe60e2f2	-0.21961573
3	0xbdab40b9	-0.08361954
4	0x3d3b8011	0.04577643
5	0x3ea525c9	0.3225539
6	0x3dd5087b	0.10402008
7	0x3c2d5ba5	0.010580932
8	0xbd83ed35	-0.06441728
9	0xbdec7c99	-0.115472026
10	0x3adc17bc	0.0016791741
11	0xbd8c927b	-0.068638764
12	0xbc5c41f8	-0.013443463
13	0xbf6bd1cb	-0.92116994
14	0x3ecb1528	0.39664578
15	0x3dfdf3f5	0.12400047
16	0x3d071b2b	0.032984894
17	0x3c895300	0.01676321
18	0xbd381d9b	-0.04495011
19	0xbd7d6923	-0.061867844
20	0x3d3add16	0.045621
21	0xbd95958e	-0.07303916
22	0xbdf32d66	-0.118738934
23	0x3c95132f	0.018197624
24	0x3e0cba52	0.1374295
25	0xbe102f69	-0.14080586
26	0xbd0c6447	-0.03427532
27	0xbeae68b5	-0.3406426
28	0xbde93aac	-0.11388144
29	0xbd8c1f35	-0.0684189
30	0xbbd4ec6e	-0.006497911
31	0x3da260ea	0.07928641
32	0x3e0734b8	0.13203704
33	0x3ddd0155	0.1079127
34	0xbd536a1e	-0.051614873
35	0xbdd8d32e	-0.10587154
36	0x3d5494ed	0.05189984
37	0xbe5e8adb	-0.21732657
38	0xbdd6d31e	-0.10489486
39	0xbd42bc70	-0.04754299
40	0xbc83c25d	-0.01608389
41	0x3ddfd6e4	0.10929659
42	0x3ce132c9	0.027490037
43	0xbdfee385	-0.1244574
44	0xbe06cd2f	-0.13164209
45	0xbd9c10b4	-0.07620373
46	0x3e5da420	0.2164464
47	0xbe4177b8	-0.18893325
48	0xbd7da55f	-0.06192529
49	0xbdf61c43	-0.12017109
50	0x3e83eca1	0.2576647
51	0x3b2f6cb5	0.0026767675
52	0x3c296095	0.010337968
53	0xbdabe03c	-0.08392379
54	0xbe1cc9fc	-0.15311426
55	0xbe77e5bd	-0.24208732
56	0x3e90ce6a	0.2828248
57	0x3ce17ffc	0.027526848
58	0xbe2c7acf	-0.16843723
59	0x3e9d40fa	0.30713636
60	0xbe27ab40	-0.1637392
61	0xbe9e6c1b	-0.30941853
62	0x3dd963ac	0.10614714
63	0xbd810169	-0.06299097
64	0xbd5d450c	-0.054020926
65	0x3daac141	0.083376415
66	0x3e265b95	0.16245873
67	0x3c5aca74	0.013353933
68	0x3d58fe6a	0.052977003
69	0xbdadccc4	-0.084863216
70	0xbe1becdb	-0.15227072
71	0xb9d69fa0	-0.0004093619
72	0xbe505155	-0.20343526
73	0xbd6336f1	-0.055472318
74	0xbe5072dd	-0.20356317
75	0xbdcf9bec	-0.101371616
76	0xbdd6876f	-0.10475051
77	0x3e6b938b	0.23005502
78	0xbdaefa6b	-0.08543857
79	0xbdcfeb4c	-0.10152301
80	0x3d51c19e	0.05121004
81	0xbdc0894a	-0.09401186
82	0xbdbab5d1	-0.0911671
83	0xbe340b98	-0.17582548
84	0x3d16763b	0.036733847
85	0xbd9d3098	-0.07675284
86	0xbc919ac7	-0.017773999
87	0x3d43290e	0.047646575
88	0xbe53a707	-0.20669185
89	0xbe43df5d	-0.19128175
90	0xbe24ae81	-0.16082193
91	0x3dbec2a8	0.093144715
92	0xbcc79fb1	-0.024368139
93	0xbd9b5a9b	-0.07585641
94	0x3e6ca416	0.23109469
95	0xbd9a9f40	-0.07549906
96	0xbdb228a7	-0.0869916
97	0xbe561bb0	-0.20909
98	0xbd9a84d7	-0.075448684
99	0x3b984d55	0.0046478906
100	0xbe047020	-0.12933397
101	0x3dcf917f	0.10135173
102	0x3ebd28c9	0.3694518
103	0x3edcc611	0.43119863
104	0x3d8caab4	0.068684965
105	0xbc5da79a	-0.013528729
106	0xbb43763e	-0.0029825117
107	0x3d98c228	0.07458907
108	0xbe5649fa	-0.20926657
109	0x3d9027c0	0.07038832
110	0x3dc63bbe	0.09679364
111	0xbe3f276e	-0.18667385
112	0x3da61168	0.08108789
113	0x3e58c040	0.21167088
114	0xbd2caff4	-0.04215999
115	0x3e04a256	0.12952551
116	0xbe12de0c	-0.14342517
117	0x3c6ad436	0.014332822
118	0xbd4ba9ca	-0.04972247
119	0xbd83e8f5	-0.064409174
120	0xbe185c7c	-0.1487903
121	0xbdc13302	-0.09433557
122	0x3e1f2d1b	0.1554455
123	0xbd865d87	-0.06560808
124	0xbbb9d074	-0.0056706015
125	0xbcd52e24	-0.026022978
126	0xbdca4bcc	-0.09877738
127	0x3dc11138	0.09427112

bn1.running_mean f4 [128]
0	0x3ec898fc	0.39179218
1	0x3f322d80	0.6960068
2	0x3dc92e16	0.09823243
3	0x3d8c4ad0	0.06850207
4	0x3edac690	0.42729616
5	0x4012a4a4	2.2912989
6	0x3e543234	0.20722276
7	0x3e4e9c2a	0.2017676
8	0x3d1914a7	0.03737321
9	0x3e1253f7	0.14289843
10	0x3ef933b9	0.48672274
11	0x3e8076b0	0.2509055
12	0x3de709c3	0.11281159
13	0x3d9937d5	0.07481352
14	0x3fd4f2b4	1.6636567
15	0x3f7a6b33	0.97819823
16	0x3f2d3dd9	0.676725
17	0x3e1a1cce	0.1505005
18	0x3ef02e59	0.4691036
19	0x3da71f2a	0.08160241
20	0x3fbb56e5	1.4635893
21	0x3e6cc302	0.23121265
22	0x3d9c462f	0.07630574
23	0x3d92b6ca	0.071637705
24	0x3f76f30e	0.9646462
25	0x3e66c97b	0.22537796
26	0x3fe04ad9	1.7522842
27	0x3c2a1452	0.010380821
28	0x3e3a4522	0.18190435
29	0x3ebb8f46	0.36632746
30	0x3dfebb7d	0.12438104
31	0x3ed7a4e2	0.42117983
32	0x3e858a6e	0.26082176
33	0x3f12ab80	0.5729294
34	0x3f9a5f8f	1.2060412
35	0x3d843210	0.06454861
36	0x3f500599	0.8125854
37	0x3d00bf99	0.03143272
38	0x3dba47b1	0.09095705
39	0x3edb34d3	0.4281374
40	0x3f0e7c26	0.55658185
41	0x3ec613e8	0.38687062
42	0x3e53b4fd	0.2067451
43	0x3d9dfadc	0.07713863
44	0x3f4d39f4	0.80166554
45	0x3e9e3fd1	0.30908063
46	0x3f40b03d	0.7526892
47	0x3ee236be	0.4418239
48	0x3eda9923	0.4269496
49	0x3da4257e	0.080149636
50	0x3fd89327	1.6919907
51	0x3e8fca1d	0.28083888
52	0x3e7f7543	0.24947076
53	0x40138069	2.3047125
54	0x3e99323a	0.29921132
55	0x3ef58aec	0.4795755
56	0x3f3f1aa1	0.7465001
57	0x3ec48cff	0.3838882
58	0x3e0941f8	0.13404071
59	0x3f8b5ab3	1.0887054
60	0x3fbc01e8	1.4688082
61	0x3eb83ea9	0.35985306
62	0x3fca83de	1.5821493
63	0x401681e5	2.3516781
64	0x3e438464	0.19093472
65	0x3e03eedc	0.12884086
66	0x3fc18d58	1.512126
67	0x3f642bd5	0.8912938
68	0x3f830c05	1.0238043
69	0x3e3ea4c9	0.18617548
70	0x3ebdd5d4	0.370772
71	0x3fb5a3d8	1.4190626
72	0x3e2973fc	0.16548151
73	0x3d7dee85	0.061995048
74	0x3faa9239	1.3325874
75	0x3df80e22	0.121120706
76	0x3ef55b0d	0.4792103
77	0x3f4b4a19	0.7940994
78	0x3d209232	0.039201923
79	0x3e218e38	0.15776908
80	0x3f0f37f3	0.55944747
81	0x3f183c40	0.59466934
82	0x3fe77f30	1.808569
83	0x3eaf72b6	0.34267205
84	0x3f7f42af	0.99711126
85	0x3e036963	0.1283317
86	0x3dbdf957	0.092760734
87	0x3e208294	0.15674812
88	0x3c7a9015	0.015293141
89	0x3f06e63e	0.5269507
90	0x3f092f45	0.5358775
91	0x3f31cc55	0.6945241
92	0x3eaa0799	0.33208922
93	0x3e3ab9cb	0.18234937
94	0x3f9f3ec4	1.244103
95	0x3e98b3ac	0.2982458
96	0x3f874cc1	1.0570298
97	0x3e62bc61	0.22142173
98	0x3966e0b9	0.00022018225
99	0x3e8a22c9	0.26979664
100	0x3f0f34f6	0.55940187
101	0x3ffff2c3	1.999596
102	0x3f0e8236	0.55667436
103	0x3fe387c4	1.7775807
104	0x3e2c0784	0.16799742
105	0x3db50b99	0.08840103
106	0x3f1db96b	0.6161105
107	0x3f110350	0.5664568
108	0x3f29f321	0.6638661
109	0x3e11ee67	0.142511
110	0x3efc6734	0.49297488
111	0x3e1d69db	0.15372412
112	0x3e28c74a	0.16482273
113	0x3f24c4b5	0.6436265
114	0x3d99cf40	0.07510233
115	0x3fbde1ff	1.4834594
116	0x3ec39934	0.38202822
117	0x3f27a7a4	0.65490174
118	0x3e0a43e5	0.13502462
119	0x3f7fcfa2	0.999262
120	0x3f94ba7e	1.1619413
121	0x3e2d90d8	0.16949785
122	0x3ebbe956	0.3670146
123	0x3e3b6a5a	0.18302289
124	0x3eb7e3fa	0.3591612
125	0x3e7d45ce	0.2473366
126	0x3eaf9f39	0.34301165
127	0x3e7a74a8	0.24458563

bn1.running_var f4 [128]
0	0x3eb87194	0.36024153
1	0x3eaf719a	0.3426636
2	0x3dd16daa	0.10225995
3	0x3dc9ccdc	0.09853527
4	0x3f159f78	0.58446455
5	0x3fc8bfaa	1.5683491
6	0x3e540497	0.20704876
7	0x3e454e76	0.19268212
8	0x3d636936	0.05552026
9	0x3e1862f1	0.14881493
10	0x3ecfccd7	0.40585968
11	0x3eb201ec	0.3476709
12	0x3db0b391	0.086279996
13	0x3e174856	0.14773688
14	0x3f19ddcf	0.6010408
15	0x3fe8afc9	1.8178645
16	0x3f885be3	1.0653042
17	0x3e2c9b7e	0.1685619
18	0x3f3778c2	0.71668637
19	0x3dd44173	0.10364046
20	0x3feb0d67	1.8363465
21	0x3e8080fa	0.250984
22	0x3e193b4a	0.14964023
23	0x3d4f8ed8	0.050673336
24	0x3e81b5b0	0.2533393
25	0x3e95ac43	0.29232988
26	0x3f65f1e5	0.89822227
27	0x3bc93456	0.006140272
28	0x3e5efa63	0.21775202
29	0x3f2522d2	0.64506257
30	0x3dcb3ac2	0.099233165
31	0x3ef1b4ef	0.47208354
32	0x3ea72e1d	0.3265237
33	0x3f960943	1.1721576
34	0x4041d259	3.0284636
35	0x3dbd493c	0.09242484
36	0x3fc4f27e	1.5386503
37	0x3caf58ea	0.021404702
38	0x3d7e8a68	0.062143713
39	0x3f25c2f9	0.6475063
40	0x3f0556d7	0.5208563
41	0x3f12553e	0.5716132
42	0x3e8a4ae7	0.2701027
43	0x3def5051	0.11685241
44	0x3fb0f091	1.3823415
45	0x3eb491d2	0.35267502
46	0x3fad8f0a	1.3559277
47	0x3f0c1183	0.5471422
48	0x3e889ec4	0.2668363
49	0x3d7f8597	0.06238326
50	0x403b5b93	2.9274642
51	0x3e8d02d3	0.27541217
52	0x3eb3797e	0.3505363
53	0x40ef8a4c	7.485632
54	0x3e9990bb	0.29993233
55	0x3f169bb2	0.5883132
56	0x3eaa9459	0.33316305
57	0x3ecf9701	0.40544894
58	0x3e423f43	0.18969445
59	0x3fccac83	1.5990146
60	0x3ed03a37	0.40669414
61	0x3f024d96	0.50899637
62	0x3fc04af1	1.502287
63	0x40c81812	6.2529383
64	0x3e00722e	0.12543556
65	0x3de35fd8	0.11102265
66	0x3f984373	1.1895584
67	0x3eaa2c0b	0.33236727
68	0x4009b500	2.1516724
69	0x3e668263	0.22510676
70	0x3e9114ed	0.28336278
71	0x3f7d2dcc	0.98898005
72	0x3e71fccf	0.23631595
73	0x3d29f8b8	0.041496962
74	0x3fc45c09	1.5340587
75	0x3dedb49e	0.116067156
76	0x3f06e53e	0.52693546
77	0x3fc40347	1.53135
78	0x3d5690b4	0.052384093
79	0x3e28eb0a	0.1649591
80	0x3ee998c7	0.45624372
81	0x3f0df4ea	0.55451834
82	0x3fa786f6	1.3088062
83	0x3eaa847c	0.33304203
84	0x3f466aaf	0.77506536
85	0x3e0f51c6	0.13996038
86	0x3df607e0	0.12013221
87	0x3e2cae33	0.16863327
88	0x3c65b63a	0.014020497
89	0x3f34fd34	0.7069886
90	0x3f5a297f	0.8521957
91	0x3f8a1fd4	1.0790963
92	0x3e491e39	0.19640435
93	0x3e215cfe	0.1575813
94	0x3f579961	0.8421841
95	0x3eb1f0c8	0.34754014
96	0x4006c475	2.1057408
97	0x3eb71bbf	0.35763356
98	0x39654833	0.00021866038
99	0x3eea097e	0.45710367
100	0x3efe9aa8	0.49727368
101	0x3eb5b8e9	0.35492638
102	0x3f700066	0.9375061
103	0x3f2e36fd	0.68052655
104	0x3e88f220	0.26747227
105	0x3dcf5974	0.10124484
106	0x3f5e3c79	0.86811024
107	0x3f80684d	1.003183
108	0x3f45db28	0.7728753
109	0x3e291c58	0.16514719
110	0x3f595da5	0.84908515
111	0x3e35423f	0.17701052
112	0x3e46cd47	0.19414245
113	0x3f7fdd96	0.9994749
114	0x3d840e19	0.064480014
115	0x3f6816bd	0.90659696
116	0x3e916d68	0.28403783
117	0x3f3d717f	0.74001306
118	0x3e08af76	0.13348183
119	0x4002ac0e	2.0417514
120	0x3f801b2f	1.0008296
121	0x3e37720c	0.17914599
122	0x3ee4a4d6	0.4465701
123	0x3e5465d5	0.20741971
124	0x3ecad356	0.39614362
125	0x3e927cd6	0.28610867
126	0x3e99f341	0.300684
127	0x3e2390c1	0.15973188
